{
  "nodes": [
    {
      "op": "null", 
      "param": {}, 
      "name": "data", 
      "inputs": [], 
      "backward_source_id": -1
    }, 
    {
      "op": "null", 
      "param": {}, 
      "name": "bn_data_gamma", 
      "inputs": [], 
      "backward_source_id": -1
    }, 
    {
      "op": "null", 
      "param": {}, 
      "name": "bn_data_beta", 
      "inputs": [], 
      "backward_source_id": -1
    }, 
    {
      "op": "BatchNorm", 
      "param": {
        "eps": "2e-05", 
        "fix_gamma": "True", 
        "momentum": "0.9", 
        "use_global_stats": "False"
      }, 
      "name": "bn_data", 
      "inputs": [[0, 0], [1, 0], [2, 0]], 
      "backward_source_id": -1
    }, 
    {
      "op": "null", 
      "param": {}, 
      "name": "conv0_weight", 
      "inputs": [], 
      "backward_source_id": -1
    }, 
    {
      "op": "Convolution", 
      "param": {
        "cudnn_off": "False", 
        "cudnn_tune": "limited_workspace", 
        "dilate": "(1,1)", 
        "kernel": "(7,7)", 
        "no_bias": "True", 
        "num_filter": "64", 
        "num_group": "1", 
        "pad": "(3,3)", 
        "stride": "(2,2)", 
        "workspace": "512"
      }, 
      "name": "conv0", 
      "inputs": [[3, 0], [4, 0]], 
      "backward_source_id": -1
    }, 
    {
      "op": "null", 
      "param": {}, 
      "name": "bn0_gamma", 
      "inputs": [], 
      "backward_source_id": -1
    }, 
    {
      "op": "null", 
      "param": {}, 
      "name": "bn0_beta", 
      "inputs": [], 
      "backward_source_id": -1
    }, 
    {
      "op": "BatchNorm", 
      "param": {
        "eps": "2e-05", 
        "fix_gamma": "False", 
        "momentum": "0.9", 
        "use_global_stats": "False"
      }, 
      "name": "bn0", 
      "inputs": [[5, 0], [6, 0], [7, 0]], 
      "backward_source_id": -1
    }, 
    {
      "op": "Activation", 
      "param": {"act_type": "relu"}, 
      "name": "relu0", 
      "inputs": [[8, 0]], 
      "backward_source_id": -1
    }, 
    {
      "op": "Pooling", 
      "param": {
        "global_pool": "False", 
        "kernel": "(3,3)", 
        "pad": "(1,1)", 
        "pool_type": "max", 
        "pooling_convention": "valid", 
        "stride": "(2,2)"
      }, 
      "name": "pooling0", 
      "inputs": [[9, 0]], 
      "backward_source_id": -1
    }, 
    {
      "op": "null", 
      "param": {}, 
      "name": "DBstage1_unit1_bn1_gamma", 
      "inputs": [], 
      "backward_source_id": -1
    }, 
    {
      "op": "null", 
      "param": {}, 
      "name": "DBstage1_unit1_bn1_beta", 
      "inputs": [], 
      "backward_source_id": -1
    }, 
    {
      "op": "BatchNorm", 
      "param": {
        "eps": "2e-05", 
        "fix_gamma": "False", 
        "momentum": "0.9", 
        "use_global_stats": "False"
      }, 
      "name": "DBstage1_unit1_bn1", 
      "inputs": [[10, 0], [11, 0], [12, 0]], 
      "backward_source_id": -1
    }, 
    {
      "op": "Activation", 
      "param": {"act_type": "relu"}, 
      "name": "DBstage1_unit1_relu1", 
      "inputs": [[13, 0]], 
      "backward_source_id": -1
    }, 
    {
      "op": "null", 
      "param": {}, 
      "name": "DBstage1_unit1_conv1_weight", 
      "inputs": [], 
      "backward_source_id": -1
    }, 
    {
      "op": "Convolution", 
      "param": {
        "cudnn_off": "False", 
        "cudnn_tune": "limited_workspace", 
        "dilate": "(1,1)", 
        "kernel": "(1,1)", 
        "no_bias": "True", 
        "num_filter": "128", 
        "num_group": "1", 
        "pad": "(0,0)", 
        "stride": "(1,1)", 
        "workspace": "512"
      }, 
      "name": "DBstage1_unit1_conv1", 
      "inputs": [[14, 0], [15, 0]], 
      "backward_source_id": -1
    }, 
    {
      "op": "null", 
      "param": {}, 
      "name": "DBstage1_unit1_bn2_gamma", 
      "inputs": [], 
      "backward_source_id": -1
    }, 
    {
      "op": "null", 
      "param": {}, 
      "name": "DBstage1_unit1_bn2_beta", 
      "inputs": [], 
      "backward_source_id": -1
    }, 
    {
      "op": "BatchNorm", 
      "param": {
        "eps": "2e-05", 
        "fix_gamma": "False", 
        "momentum": "0.9", 
        "use_global_stats": "False"
      }, 
      "name": "DBstage1_unit1_bn2", 
      "inputs": [[16, 0], [17, 0], [18, 0]], 
      "backward_source_id": -1
    }, 
    {
      "op": "Activation", 
      "param": {"act_type": "relu"}, 
      "name": "DBstage1_unit1_relu2", 
      "inputs": [[19, 0]], 
      "backward_source_id": -1
    }, 
    {
      "op": "null", 
      "param": {}, 
      "name": "DBstage1_unit1_conv2_weight", 
      "inputs": [], 
      "backward_source_id": -1
    }, 
    {
      "op": "Convolution", 
      "param": {
        "cudnn_off": "False", 
        "cudnn_tune": "limited_workspace", 
        "dilate": "(1,1)", 
        "kernel": "(3,3)", 
        "no_bias": "True", 
        "num_filter": "32", 
        "num_group": "1", 
        "pad": "(1,1)", 
        "stride": "(1,1)", 
        "workspace": "512"
      }, 
      "name": "DBstage1_unit1_conv2", 
      "inputs": [[20, 0], [21, 0]], 
      "backward_source_id": -1
    }, 
    {
      "op": "Concat", 
      "param": {
        "dim": "1", 
        "num_args": "2"
      }, 
      "name": "DBstage1_concat1", 
      "inputs": [[10, 0], [22, 0]], 
      "backward_source_id": -1
    }, 
    {
      "op": "null", 
      "param": {}, 
      "name": "DBstage1_unit2_bn1_gamma", 
      "inputs": [], 
      "backward_source_id": -1
    }, 
    {
      "op": "null", 
      "param": {}, 
      "name": "DBstage1_unit2_bn1_beta", 
      "inputs": [], 
      "backward_source_id": -1
    }, 
    {
      "op": "BatchNorm", 
      "param": {
        "eps": "2e-05", 
        "fix_gamma": "False", 
        "momentum": "0.9", 
        "use_global_stats": "False"
      }, 
      "name": "DBstage1_unit2_bn1", 
      "inputs": [[23, 0], [24, 0], [25, 0]], 
      "backward_source_id": -1
    }, 
    {
      "op": "Activation", 
      "param": {"act_type": "relu"}, 
      "name": "DBstage1_unit2_relu1", 
      "inputs": [[26, 0]], 
      "backward_source_id": -1
    }, 
    {
      "op": "null", 
      "param": {}, 
      "name": "DBstage1_unit2_conv1_weight", 
      "inputs": [], 
      "backward_source_id": -1
    }, 
    {
      "op": "Convolution", 
      "param": {
        "cudnn_off": "False", 
        "cudnn_tune": "limited_workspace", 
        "dilate": "(1,1)", 
        "kernel": "(1,1)", 
        "no_bias": "True", 
        "num_filter": "128", 
        "num_group": "1", 
        "pad": "(0,0)", 
        "stride": "(1,1)", 
        "workspace": "512"
      }, 
      "name": "DBstage1_unit2_conv1", 
      "inputs": [[27, 0], [28, 0]], 
      "backward_source_id": -1
    }, 
    {
      "op": "null", 
      "param": {}, 
      "name": "DBstage1_unit2_bn2_gamma", 
      "inputs": [], 
      "backward_source_id": -1
    }, 
    {
      "op": "null", 
      "param": {}, 
      "name": "DBstage1_unit2_bn2_beta", 
      "inputs": [], 
      "backward_source_id": -1
    }, 
    {
      "op": "BatchNorm", 
      "param": {
        "eps": "2e-05", 
        "fix_gamma": "False", 
        "momentum": "0.9", 
        "use_global_stats": "False"
      }, 
      "name": "DBstage1_unit2_bn2", 
      "inputs": [[29, 0], [30, 0], [31, 0]], 
      "backward_source_id": -1
    }, 
    {
      "op": "Activation", 
      "param": {"act_type": "relu"}, 
      "name": "DBstage1_unit2_relu2", 
      "inputs": [[32, 0]], 
      "backward_source_id": -1
    }, 
    {
      "op": "null", 
      "param": {}, 
      "name": "DBstage1_unit2_conv2_weight", 
      "inputs": [], 
      "backward_source_id": -1
    }, 
    {
      "op": "Convolution", 
      "param": {
        "cudnn_off": "False", 
        "cudnn_tune": "limited_workspace", 
        "dilate": "(1,1)", 
        "kernel": "(3,3)", 
        "no_bias": "True", 
        "num_filter": "32", 
        "num_group": "1", 
        "pad": "(1,1)", 
        "stride": "(1,1)", 
        "workspace": "512"
      }, 
      "name": "DBstage1_unit2_conv2", 
      "inputs": [[33, 0], [34, 0]], 
      "backward_source_id": -1
    }, 
    {
      "op": "Concat", 
      "param": {
        "dim": "1", 
        "num_args": "2"
      }, 
      "name": "DBstage1_concat2", 
      "inputs": [[23, 0], [35, 0]], 
      "backward_source_id": -1
    }, 
    {
      "op": "null", 
      "param": {}, 
      "name": "DBstage1_unit3_bn1_gamma", 
      "inputs": [], 
      "backward_source_id": -1
    }, 
    {
      "op": "null", 
      "param": {}, 
      "name": "DBstage1_unit3_bn1_beta", 
      "inputs": [], 
      "backward_source_id": -1
    }, 
    {
      "op": "BatchNorm", 
      "param": {
        "eps": "2e-05", 
        "fix_gamma": "False", 
        "momentum": "0.9", 
        "use_global_stats": "False"
      }, 
      "name": "DBstage1_unit3_bn1", 
      "inputs": [[36, 0], [37, 0], [38, 0]], 
      "backward_source_id": -1
    }, 
    {
      "op": "Activation", 
      "param": {"act_type": "relu"}, 
      "name": "DBstage1_unit3_relu1", 
      "inputs": [[39, 0]], 
      "backward_source_id": -1
    }, 
    {
      "op": "null", 
      "param": {}, 
      "name": "DBstage1_unit3_conv1_weight", 
      "inputs": [], 
      "backward_source_id": -1
    }, 
    {
      "op": "Convolution", 
      "param": {
        "cudnn_off": "False", 
        "cudnn_tune": "limited_workspace", 
        "dilate": "(1,1)", 
        "kernel": "(1,1)", 
        "no_bias": "True", 
        "num_filter": "128", 
        "num_group": "1", 
        "pad": "(0,0)", 
        "stride": "(1,1)", 
        "workspace": "512"
      }, 
      "name": "DBstage1_unit3_conv1", 
      "inputs": [[40, 0], [41, 0]], 
      "backward_source_id": -1
    }, 
    {
      "op": "null", 
      "param": {}, 
      "name": "DBstage1_unit3_bn2_gamma", 
      "inputs": [], 
      "backward_source_id": -1
    }, 
    {
      "op": "null", 
      "param": {}, 
      "name": "DBstage1_unit3_bn2_beta", 
      "inputs": [], 
      "backward_source_id": -1
    }, 
    {
      "op": "BatchNorm", 
      "param": {
        "eps": "2e-05", 
        "fix_gamma": "False", 
        "momentum": "0.9", 
        "use_global_stats": "False"
      }, 
      "name": "DBstage1_unit3_bn2", 
      "inputs": [[42, 0], [43, 0], [44, 0]], 
      "backward_source_id": -1
    }, 
    {
      "op": "Activation", 
      "param": {"act_type": "relu"}, 
      "name": "DBstage1_unit3_relu2", 
      "inputs": [[45, 0]], 
      "backward_source_id": -1
    }, 
    {
      "op": "null", 
      "param": {}, 
      "name": "DBstage1_unit3_conv2_weight", 
      "inputs": [], 
      "backward_source_id": -1
    }, 
    {
      "op": "Convolution", 
      "param": {
        "cudnn_off": "False", 
        "cudnn_tune": "limited_workspace", 
        "dilate": "(1,1)", 
        "kernel": "(3,3)", 
        "no_bias": "True", 
        "num_filter": "32", 
        "num_group": "1", 
        "pad": "(1,1)", 
        "stride": "(1,1)", 
        "workspace": "512"
      }, 
      "name": "DBstage1_unit3_conv2", 
      "inputs": [[46, 0], [47, 0]], 
      "backward_source_id": -1
    }, 
    {
      "op": "Concat", 
      "param": {
        "dim": "1", 
        "num_args": "2"
      }, 
      "name": "DBstage1_concat3", 
      "inputs": [[36, 0], [48, 0]], 
      "backward_source_id": -1
    }, 
    {
      "op": "null", 
      "param": {}, 
      "name": "DBstage1_unit4_bn1_gamma", 
      "inputs": [], 
      "backward_source_id": -1
    }, 
    {
      "op": "null", 
      "param": {}, 
      "name": "DBstage1_unit4_bn1_beta", 
      "inputs": [], 
      "backward_source_id": -1
    }, 
    {
      "op": "BatchNorm", 
      "param": {
        "eps": "2e-05", 
        "fix_gamma": "False", 
        "momentum": "0.9", 
        "use_global_stats": "False"
      }, 
      "name": "DBstage1_unit4_bn1", 
      "inputs": [[49, 0], [50, 0], [51, 0]], 
      "backward_source_id": -1
    }, 
    {
      "op": "Activation", 
      "param": {"act_type": "relu"}, 
      "name": "DBstage1_unit4_relu1", 
      "inputs": [[52, 0]], 
      "backward_source_id": -1
    }, 
    {
      "op": "null", 
      "param": {}, 
      "name": "DBstage1_unit4_conv1_weight", 
      "inputs": [], 
      "backward_source_id": -1
    }, 
    {
      "op": "Convolution", 
      "param": {
        "cudnn_off": "False", 
        "cudnn_tune": "limited_workspace", 
        "dilate": "(1,1)", 
        "kernel": "(1,1)", 
        "no_bias": "True", 
        "num_filter": "128", 
        "num_group": "1", 
        "pad": "(0,0)", 
        "stride": "(1,1)", 
        "workspace": "512"
      }, 
      "name": "DBstage1_unit4_conv1", 
      "inputs": [[53, 0], [54, 0]], 
      "backward_source_id": -1
    }, 
    {
      "op": "null", 
      "param": {}, 
      "name": "DBstage1_unit4_bn2_gamma", 
      "inputs": [], 
      "backward_source_id": -1
    }, 
    {
      "op": "null", 
      "param": {}, 
      "name": "DBstage1_unit4_bn2_beta", 
      "inputs": [], 
      "backward_source_id": -1
    }, 
    {
      "op": "BatchNorm", 
      "param": {
        "eps": "2e-05", 
        "fix_gamma": "False", 
        "momentum": "0.9", 
        "use_global_stats": "False"
      }, 
      "name": "DBstage1_unit4_bn2", 
      "inputs": [[55, 0], [56, 0], [57, 0]], 
      "backward_source_id": -1
    }, 
    {
      "op": "Activation", 
      "param": {"act_type": "relu"}, 
      "name": "DBstage1_unit4_relu2", 
      "inputs": [[58, 0]], 
      "backward_source_id": -1
    }, 
    {
      "op": "null", 
      "param": {}, 
      "name": "DBstage1_unit4_conv2_weight", 
      "inputs": [], 
      "backward_source_id": -1
    }, 
    {
      "op": "Convolution", 
      "param": {
        "cudnn_off": "False", 
        "cudnn_tune": "limited_workspace", 
        "dilate": "(1,1)", 
        "kernel": "(3,3)", 
        "no_bias": "True", 
        "num_filter": "32", 
        "num_group": "1", 
        "pad": "(1,1)", 
        "stride": "(1,1)", 
        "workspace": "512"
      }, 
      "name": "DBstage1_unit4_conv2", 
      "inputs": [[59, 0], [60, 0]], 
      "backward_source_id": -1
    }, 
    {
      "op": "Concat", 
      "param": {
        "dim": "1", 
        "num_args": "2"
      }, 
      "name": "DBstage1_concat4", 
      "inputs": [[49, 0], [61, 0]], 
      "backward_source_id": -1
    }, 
    {
      "op": "null", 
      "param": {}, 
      "name": "DBstage1_unit5_bn1_gamma", 
      "inputs": [], 
      "backward_source_id": -1
    }, 
    {
      "op": "null", 
      "param": {}, 
      "name": "DBstage1_unit5_bn1_beta", 
      "inputs": [], 
      "backward_source_id": -1
    }, 
    {
      "op": "BatchNorm", 
      "param": {
        "eps": "2e-05", 
        "fix_gamma": "False", 
        "momentum": "0.9", 
        "use_global_stats": "False"
      }, 
      "name": "DBstage1_unit5_bn1", 
      "inputs": [[62, 0], [63, 0], [64, 0]], 
      "backward_source_id": -1
    }, 
    {
      "op": "Activation", 
      "param": {"act_type": "relu"}, 
      "name": "DBstage1_unit5_relu1", 
      "inputs": [[65, 0]], 
      "backward_source_id": -1
    }, 
    {
      "op": "null", 
      "param": {}, 
      "name": "DBstage1_unit5_conv1_weight", 
      "inputs": [], 
      "backward_source_id": -1
    }, 
    {
      "op": "Convolution", 
      "param": {
        "cudnn_off": "False", 
        "cudnn_tune": "limited_workspace", 
        "dilate": "(1,1)", 
        "kernel": "(1,1)", 
        "no_bias": "True", 
        "num_filter": "128", 
        "num_group": "1", 
        "pad": "(0,0)", 
        "stride": "(1,1)", 
        "workspace": "512"
      }, 
      "name": "DBstage1_unit5_conv1", 
      "inputs": [[66, 0], [67, 0]], 
      "backward_source_id": -1
    }, 
    {
      "op": "null", 
      "param": {}, 
      "name": "DBstage1_unit5_bn2_gamma", 
      "inputs": [], 
      "backward_source_id": -1
    }, 
    {
      "op": "null", 
      "param": {}, 
      "name": "DBstage1_unit5_bn2_beta", 
      "inputs": [], 
      "backward_source_id": -1
    }, 
    {
      "op": "BatchNorm", 
      "param": {
        "eps": "2e-05", 
        "fix_gamma": "False", 
        "momentum": "0.9", 
        "use_global_stats": "False"
      }, 
      "name": "DBstage1_unit5_bn2", 
      "inputs": [[68, 0], [69, 0], [70, 0]], 
      "backward_source_id": -1
    }, 
    {
      "op": "Activation", 
      "param": {"act_type": "relu"}, 
      "name": "DBstage1_unit5_relu2", 
      "inputs": [[71, 0]], 
      "backward_source_id": -1
    }, 
    {
      "op": "null", 
      "param": {}, 
      "name": "DBstage1_unit5_conv2_weight", 
      "inputs": [], 
      "backward_source_id": -1
    }, 
    {
      "op": "Convolution", 
      "param": {
        "cudnn_off": "False", 
        "cudnn_tune": "limited_workspace", 
        "dilate": "(1,1)", 
        "kernel": "(3,3)", 
        "no_bias": "True", 
        "num_filter": "32", 
        "num_group": "1", 
        "pad": "(1,1)", 
        "stride": "(1,1)", 
        "workspace": "512"
      }, 
      "name": "DBstage1_unit5_conv2", 
      "inputs": [[72, 0], [73, 0]], 
      "backward_source_id": -1
    }, 
    {
      "op": "Concat", 
      "param": {
        "dim": "1", 
        "num_args": "2"
      }, 
      "name": "DBstage1_concat5", 
      "inputs": [[62, 0], [74, 0]], 
      "backward_source_id": -1
    }, 
    {
      "op": "null", 
      "param": {}, 
      "name": "DBstage1_unit6_bn1_gamma", 
      "inputs": [], 
      "backward_source_id": -1
    }, 
    {
      "op": "null", 
      "param": {}, 
      "name": "DBstage1_unit6_bn1_beta", 
      "inputs": [], 
      "backward_source_id": -1
    }, 
    {
      "op": "BatchNorm", 
      "param": {
        "eps": "2e-05", 
        "fix_gamma": "False", 
        "momentum": "0.9", 
        "use_global_stats": "False"
      }, 
      "name": "DBstage1_unit6_bn1", 
      "inputs": [[75, 0], [76, 0], [77, 0]], 
      "backward_source_id": -1
    }, 
    {
      "op": "Activation", 
      "param": {"act_type": "relu"}, 
      "name": "DBstage1_unit6_relu1", 
      "inputs": [[78, 0]], 
      "backward_source_id": -1
    }, 
    {
      "op": "null", 
      "param": {}, 
      "name": "DBstage1_unit6_conv1_weight", 
      "inputs": [], 
      "backward_source_id": -1
    }, 
    {
      "op": "Convolution", 
      "param": {
        "cudnn_off": "False", 
        "cudnn_tune": "limited_workspace", 
        "dilate": "(1,1)", 
        "kernel": "(1,1)", 
        "no_bias": "True", 
        "num_filter": "128", 
        "num_group": "1", 
        "pad": "(0,0)", 
        "stride": "(1,1)", 
        "workspace": "512"
      }, 
      "name": "DBstage1_unit6_conv1", 
      "inputs": [[79, 0], [80, 0]], 
      "backward_source_id": -1
    }, 
    {
      "op": "null", 
      "param": {}, 
      "name": "DBstage1_unit6_bn2_gamma", 
      "inputs": [], 
      "backward_source_id": -1
    }, 
    {
      "op": "null", 
      "param": {}, 
      "name": "DBstage1_unit6_bn2_beta", 
      "inputs": [], 
      "backward_source_id": -1
    }, 
    {
      "op": "BatchNorm", 
      "param": {
        "eps": "2e-05", 
        "fix_gamma": "False", 
        "momentum": "0.9", 
        "use_global_stats": "False"
      }, 
      "name": "DBstage1_unit6_bn2", 
      "inputs": [[81, 0], [82, 0], [83, 0]], 
      "backward_source_id": -1
    }, 
    {
      "op": "Activation", 
      "param": {"act_type": "relu"}, 
      "name": "DBstage1_unit6_relu2", 
      "inputs": [[84, 0]], 
      "backward_source_id": -1
    }, 
    {
      "op": "null", 
      "param": {}, 
      "name": "DBstage1_unit6_conv2_weight", 
      "inputs": [], 
      "backward_source_id": -1
    }, 
    {
      "op": "Convolution", 
      "param": {
        "cudnn_off": "False", 
        "cudnn_tune": "limited_workspace", 
        "dilate": "(1,1)", 
        "kernel": "(3,3)", 
        "no_bias": "True", 
        "num_filter": "32", 
        "num_group": "1", 
        "pad": "(1,1)", 
        "stride": "(1,1)", 
        "workspace": "512"
      }, 
      "name": "DBstage1_unit6_conv2", 
      "inputs": [[85, 0], [86, 0]], 
      "backward_source_id": -1
    }, 
    {
      "op": "Concat", 
      "param": {
        "dim": "1", 
        "num_args": "2"
      }, 
      "name": "DBstage1_concat6", 
      "inputs": [[75, 0], [87, 0]], 
      "backward_source_id": -1
    }, 
    {
      "op": "null", 
      "param": {}, 
      "name": "TBstage1_bn1_gamma", 
      "inputs": [], 
      "backward_source_id": -1
    }, 
    {
      "op": "null", 
      "param": {}, 
      "name": "TBstage1_bn1_beta", 
      "inputs": [], 
      "backward_source_id": -1
    }, 
    {
      "op": "BatchNorm", 
      "param": {
        "eps": "2e-05", 
        "fix_gamma": "False", 
        "momentum": "0.9", 
        "use_global_stats": "False"
      }, 
      "name": "TBstage1_bn1", 
      "inputs": [[88, 0], [89, 0], [90, 0]], 
      "backward_source_id": -1
    }, 
    {
      "op": "Activation", 
      "param": {"act_type": "relu"}, 
      "name": "TBstage1_relu1", 
      "inputs": [[91, 0]], 
      "backward_source_id": -1
    }, 
    {
      "op": "null", 
      "param": {}, 
      "name": "TBstage1_conv1_weight", 
      "inputs": [], 
      "backward_source_id": -1
    }, 
    {
      "op": "Convolution", 
      "param": {
        "cudnn_off": "False", 
        "cudnn_tune": "limited_workspace", 
        "dilate": "(1,1)", 
        "kernel": "(1,1)", 
        "no_bias": "True", 
        "num_filter": "128", 
        "num_group": "1", 
        "pad": "(0,0)", 
        "stride": "(1,1)", 
        "workspace": "512"
      }, 
      "name": "TBstage1_conv1", 
      "inputs": [[92, 0], [93, 0]], 
      "backward_source_id": -1
    }, 
    {
      "op": "Pooling", 
      "param": {
        "global_pool": "False", 
        "kernel": "(2,2)", 
        "pad": "(0,0)", 
        "pool_type": "avg", 
        "pooling_convention": "valid", 
        "stride": "(2,2)"
      }, 
      "name": "TBstage1_pool1", 
      "inputs": [[94, 0]], 
      "backward_source_id": -1
    }, 
    {
      "op": "null", 
      "param": {}, 
      "name": "DBstage2_unit1_bn1_gamma", 
      "inputs": [], 
      "backward_source_id": -1
    }, 
    {
      "op": "null", 
      "param": {}, 
      "name": "DBstage2_unit1_bn1_beta", 
      "inputs": [], 
      "backward_source_id": -1
    }, 
    {
      "op": "BatchNorm", 
      "param": {
        "eps": "2e-05", 
        "fix_gamma": "False", 
        "momentum": "0.9", 
        "use_global_stats": "False"
      }, 
      "name": "DBstage2_unit1_bn1", 
      "inputs": [[95, 0], [96, 0], [97, 0]], 
      "backward_source_id": -1
    }, 
    {
      "op": "Activation", 
      "param": {"act_type": "relu"}, 
      "name": "DBstage2_unit1_relu1", 
      "inputs": [[98, 0]], 
      "backward_source_id": -1
    }, 
    {
      "op": "null", 
      "param": {}, 
      "name": "DBstage2_unit1_conv1_weight", 
      "inputs": [], 
      "backward_source_id": -1
    }, 
    {
      "op": "Convolution", 
      "param": {
        "cudnn_off": "False", 
        "cudnn_tune": "limited_workspace", 
        "dilate": "(1,1)", 
        "kernel": "(1,1)", 
        "no_bias": "True", 
        "num_filter": "128", 
        "num_group": "1", 
        "pad": "(0,0)", 
        "stride": "(1,1)", 
        "workspace": "512"
      }, 
      "name": "DBstage2_unit1_conv1", 
      "inputs": [[99, 0], [100, 0]], 
      "backward_source_id": -1
    }, 
    {
      "op": "null", 
      "param": {}, 
      "name": "DBstage2_unit1_bn2_gamma", 
      "inputs": [], 
      "backward_source_id": -1
    }, 
    {
      "op": "null", 
      "param": {}, 
      "name": "DBstage2_unit1_bn2_beta", 
      "inputs": [], 
      "backward_source_id": -1
    }, 
    {
      "op": "BatchNorm", 
      "param": {
        "eps": "2e-05", 
        "fix_gamma": "False", 
        "momentum": "0.9", 
        "use_global_stats": "False"
      }, 
      "name": "DBstage2_unit1_bn2", 
      "inputs": [[101, 0], [102, 0], [103, 0]], 
      "backward_source_id": -1
    }, 
    {
      "op": "Activation", 
      "param": {"act_type": "relu"}, 
      "name": "DBstage2_unit1_relu2", 
      "inputs": [[104, 0]], 
      "backward_source_id": -1
    }, 
    {
      "op": "null", 
      "param": {}, 
      "name": "DBstage2_unit1_conv2_weight", 
      "inputs": [], 
      "backward_source_id": -1
    }, 
    {
      "op": "Convolution", 
      "param": {
        "cudnn_off": "False", 
        "cudnn_tune": "limited_workspace", 
        "dilate": "(1,1)", 
        "kernel": "(3,3)", 
        "no_bias": "True", 
        "num_filter": "32", 
        "num_group": "1", 
        "pad": "(1,1)", 
        "stride": "(1,1)", 
        "workspace": "512"
      }, 
      "name": "DBstage2_unit1_conv2", 
      "inputs": [[105, 0], [106, 0]], 
      "backward_source_id": -1
    }, 
    {
      "op": "Concat", 
      "param": {
        "dim": "1", 
        "num_args": "2"
      }, 
      "name": "DBstage2_concat1", 
      "inputs": [[95, 0], [107, 0]], 
      "backward_source_id": -1
    }, 
    {
      "op": "null", 
      "param": {}, 
      "name": "DBstage2_unit2_bn1_gamma", 
      "inputs": [], 
      "backward_source_id": -1
    }, 
    {
      "op": "null", 
      "param": {}, 
      "name": "DBstage2_unit2_bn1_beta", 
      "inputs": [], 
      "backward_source_id": -1
    }, 
    {
      "op": "BatchNorm", 
      "param": {
        "eps": "2e-05", 
        "fix_gamma": "False", 
        "momentum": "0.9", 
        "use_global_stats": "False"
      }, 
      "name": "DBstage2_unit2_bn1", 
      "inputs": [[108, 0], [109, 0], [110, 0]], 
      "backward_source_id": -1
    }, 
    {
      "op": "Activation", 
      "param": {"act_type": "relu"}, 
      "name": "DBstage2_unit2_relu1", 
      "inputs": [[111, 0]], 
      "backward_source_id": -1
    }, 
    {
      "op": "null", 
      "param": {}, 
      "name": "DBstage2_unit2_conv1_weight", 
      "inputs": [], 
      "backward_source_id": -1
    }, 
    {
      "op": "Convolution", 
      "param": {
        "cudnn_off": "False", 
        "cudnn_tune": "limited_workspace", 
        "dilate": "(1,1)", 
        "kernel": "(1,1)", 
        "no_bias": "True", 
        "num_filter": "128", 
        "num_group": "1", 
        "pad": "(0,0)", 
        "stride": "(1,1)", 
        "workspace": "512"
      }, 
      "name": "DBstage2_unit2_conv1", 
      "inputs": [[112, 0], [113, 0]], 
      "backward_source_id": -1
    }, 
    {
      "op": "null", 
      "param": {}, 
      "name": "DBstage2_unit2_bn2_gamma", 
      "inputs": [], 
      "backward_source_id": -1
    }, 
    {
      "op": "null", 
      "param": {}, 
      "name": "DBstage2_unit2_bn2_beta", 
      "inputs": [], 
      "backward_source_id": -1
    }, 
    {
      "op": "BatchNorm", 
      "param": {
        "eps": "2e-05", 
        "fix_gamma": "False", 
        "momentum": "0.9", 
        "use_global_stats": "False"
      }, 
      "name": "DBstage2_unit2_bn2", 
      "inputs": [[114, 0], [115, 0], [116, 0]], 
      "backward_source_id": -1
    }, 
    {
      "op": "Activation", 
      "param": {"act_type": "relu"}, 
      "name": "DBstage2_unit2_relu2", 
      "inputs": [[117, 0]], 
      "backward_source_id": -1
    }, 
    {
      "op": "null", 
      "param": {}, 
      "name": "DBstage2_unit2_conv2_weight", 
      "inputs": [], 
      "backward_source_id": -1
    }, 
    {
      "op": "Convolution", 
      "param": {
        "cudnn_off": "False", 
        "cudnn_tune": "limited_workspace", 
        "dilate": "(1,1)", 
        "kernel": "(3,3)", 
        "no_bias": "True", 
        "num_filter": "32", 
        "num_group": "1", 
        "pad": "(1,1)", 
        "stride": "(1,1)", 
        "workspace": "512"
      }, 
      "name": "DBstage2_unit2_conv2", 
      "inputs": [[118, 0], [119, 0]], 
      "backward_source_id": -1
    }, 
    {
      "op": "Concat", 
      "param": {
        "dim": "1", 
        "num_args": "2"
      }, 
      "name": "DBstage2_concat2", 
      "inputs": [[108, 0], [120, 0]], 
      "backward_source_id": -1
    }, 
    {
      "op": "null", 
      "param": {}, 
      "name": "DBstage2_unit3_bn1_gamma", 
      "inputs": [], 
      "backward_source_id": -1
    }, 
    {
      "op": "null", 
      "param": {}, 
      "name": "DBstage2_unit3_bn1_beta", 
      "inputs": [], 
      "backward_source_id": -1
    }, 
    {
      "op": "BatchNorm", 
      "param": {
        "eps": "2e-05", 
        "fix_gamma": "False", 
        "momentum": "0.9", 
        "use_global_stats": "False"
      }, 
      "name": "DBstage2_unit3_bn1", 
      "inputs": [[121, 0], [122, 0], [123, 0]], 
      "backward_source_id": -1
    }, 
    {
      "op": "Activation", 
      "param": {"act_type": "relu"}, 
      "name": "DBstage2_unit3_relu1", 
      "inputs": [[124, 0]], 
      "backward_source_id": -1
    }, 
    {
      "op": "null", 
      "param": {}, 
      "name": "DBstage2_unit3_conv1_weight", 
      "inputs": [], 
      "backward_source_id": -1
    }, 
    {
      "op": "Convolution", 
      "param": {
        "cudnn_off": "False", 
        "cudnn_tune": "limited_workspace", 
        "dilate": "(1,1)", 
        "kernel": "(1,1)", 
        "no_bias": "True", 
        "num_filter": "128", 
        "num_group": "1", 
        "pad": "(0,0)", 
        "stride": "(1,1)", 
        "workspace": "512"
      }, 
      "name": "DBstage2_unit3_conv1", 
      "inputs": [[125, 0], [126, 0]], 
      "backward_source_id": -1
    }, 
    {
      "op": "null", 
      "param": {}, 
      "name": "DBstage2_unit3_bn2_gamma", 
      "inputs": [], 
      "backward_source_id": -1
    }, 
    {
      "op": "null", 
      "param": {}, 
      "name": "DBstage2_unit3_bn2_beta", 
      "inputs": [], 
      "backward_source_id": -1
    }, 
    {
      "op": "BatchNorm", 
      "param": {
        "eps": "2e-05", 
        "fix_gamma": "False", 
        "momentum": "0.9", 
        "use_global_stats": "False"
      }, 
      "name": "DBstage2_unit3_bn2", 
      "inputs": [[127, 0], [128, 0], [129, 0]], 
      "backward_source_id": -1
    }, 
    {
      "op": "Activation", 
      "param": {"act_type": "relu"}, 
      "name": "DBstage2_unit3_relu2", 
      "inputs": [[130, 0]], 
      "backward_source_id": -1
    }, 
    {
      "op": "null", 
      "param": {}, 
      "name": "DBstage2_unit3_conv2_weight", 
      "inputs": [], 
      "backward_source_id": -1
    }, 
    {
      "op": "Convolution", 
      "param": {
        "cudnn_off": "False", 
        "cudnn_tune": "limited_workspace", 
        "dilate": "(1,1)", 
        "kernel": "(3,3)", 
        "no_bias": "True", 
        "num_filter": "32", 
        "num_group": "1", 
        "pad": "(1,1)", 
        "stride": "(1,1)", 
        "workspace": "512"
      }, 
      "name": "DBstage2_unit3_conv2", 
      "inputs": [[131, 0], [132, 0]], 
      "backward_source_id": -1
    }, 
    {
      "op": "Concat", 
      "param": {
        "dim": "1", 
        "num_args": "2"
      }, 
      "name": "DBstage2_concat3", 
      "inputs": [[121, 0], [133, 0]], 
      "backward_source_id": -1
    }, 
    {
      "op": "null", 
      "param": {}, 
      "name": "DBstage2_unit4_bn1_gamma", 
      "inputs": [], 
      "backward_source_id": -1
    }, 
    {
      "op": "null", 
      "param": {}, 
      "name": "DBstage2_unit4_bn1_beta", 
      "inputs": [], 
      "backward_source_id": -1
    }, 
    {
      "op": "BatchNorm", 
      "param": {
        "eps": "2e-05", 
        "fix_gamma": "False", 
        "momentum": "0.9", 
        "use_global_stats": "False"
      }, 
      "name": "DBstage2_unit4_bn1", 
      "inputs": [[134, 0], [135, 0], [136, 0]], 
      "backward_source_id": -1
    }, 
    {
      "op": "Activation", 
      "param": {"act_type": "relu"}, 
      "name": "DBstage2_unit4_relu1", 
      "inputs": [[137, 0]], 
      "backward_source_id": -1
    }, 
    {
      "op": "null", 
      "param": {}, 
      "name": "DBstage2_unit4_conv1_weight", 
      "inputs": [], 
      "backward_source_id": -1
    }, 
    {
      "op": "Convolution", 
      "param": {
        "cudnn_off": "False", 
        "cudnn_tune": "limited_workspace", 
        "dilate": "(1,1)", 
        "kernel": "(1,1)", 
        "no_bias": "True", 
        "num_filter": "128", 
        "num_group": "1", 
        "pad": "(0,0)", 
        "stride": "(1,1)", 
        "workspace": "512"
      }, 
      "name": "DBstage2_unit4_conv1", 
      "inputs": [[138, 0], [139, 0]], 
      "backward_source_id": -1
    }, 
    {
      "op": "null", 
      "param": {}, 
      "name": "DBstage2_unit4_bn2_gamma", 
      "inputs": [], 
      "backward_source_id": -1
    }, 
    {
      "op": "null", 
      "param": {}, 
      "name": "DBstage2_unit4_bn2_beta", 
      "inputs": [], 
      "backward_source_id": -1
    }, 
    {
      "op": "BatchNorm", 
      "param": {
        "eps": "2e-05", 
        "fix_gamma": "False", 
        "momentum": "0.9", 
        "use_global_stats": "False"
      }, 
      "name": "DBstage2_unit4_bn2", 
      "inputs": [[140, 0], [141, 0], [142, 0]], 
      "backward_source_id": -1
    }, 
    {
      "op": "Activation", 
      "param": {"act_type": "relu"}, 
      "name": "DBstage2_unit4_relu2", 
      "inputs": [[143, 0]], 
      "backward_source_id": -1
    }, 
    {
      "op": "null", 
      "param": {}, 
      "name": "DBstage2_unit4_conv2_weight", 
      "inputs": [], 
      "backward_source_id": -1
    }, 
    {
      "op": "Convolution", 
      "param": {
        "cudnn_off": "False", 
        "cudnn_tune": "limited_workspace", 
        "dilate": "(1,1)", 
        "kernel": "(3,3)", 
        "no_bias": "True", 
        "num_filter": "32", 
        "num_group": "1", 
        "pad": "(1,1)", 
        "stride": "(1,1)", 
        "workspace": "512"
      }, 
      "name": "DBstage2_unit4_conv2", 
      "inputs": [[144, 0], [145, 0]], 
      "backward_source_id": -1
    }, 
    {
      "op": "Concat", 
      "param": {
        "dim": "1", 
        "num_args": "2"
      }, 
      "name": "DBstage2_concat4", 
      "inputs": [[134, 0], [146, 0]], 
      "backward_source_id": -1
    }, 
    {
      "op": "null", 
      "param": {}, 
      "name": "DBstage2_unit5_bn1_gamma", 
      "inputs": [], 
      "backward_source_id": -1
    }, 
    {
      "op": "null", 
      "param": {}, 
      "name": "DBstage2_unit5_bn1_beta", 
      "inputs": [], 
      "backward_source_id": -1
    }, 
    {
      "op": "BatchNorm", 
      "param": {
        "eps": "2e-05", 
        "fix_gamma": "False", 
        "momentum": "0.9", 
        "use_global_stats": "False"
      }, 
      "name": "DBstage2_unit5_bn1", 
      "inputs": [[147, 0], [148, 0], [149, 0]], 
      "backward_source_id": -1
    }, 
    {
      "op": "Activation", 
      "param": {"act_type": "relu"}, 
      "name": "DBstage2_unit5_relu1", 
      "inputs": [[150, 0]], 
      "backward_source_id": -1
    }, 
    {
      "op": "null", 
      "param": {}, 
      "name": "DBstage2_unit5_conv1_weight", 
      "inputs": [], 
      "backward_source_id": -1
    }, 
    {
      "op": "Convolution", 
      "param": {
        "cudnn_off": "False", 
        "cudnn_tune": "limited_workspace", 
        "dilate": "(1,1)", 
        "kernel": "(1,1)", 
        "no_bias": "True", 
        "num_filter": "128", 
        "num_group": "1", 
        "pad": "(0,0)", 
        "stride": "(1,1)", 
        "workspace": "512"
      }, 
      "name": "DBstage2_unit5_conv1", 
      "inputs": [[151, 0], [152, 0]], 
      "backward_source_id": -1
    }, 
    {
      "op": "null", 
      "param": {}, 
      "name": "DBstage2_unit5_bn2_gamma", 
      "inputs": [], 
      "backward_source_id": -1
    }, 
    {
      "op": "null", 
      "param": {}, 
      "name": "DBstage2_unit5_bn2_beta", 
      "inputs": [], 
      "backward_source_id": -1
    }, 
    {
      "op": "BatchNorm", 
      "param": {
        "eps": "2e-05", 
        "fix_gamma": "False", 
        "momentum": "0.9", 
        "use_global_stats": "False"
      }, 
      "name": "DBstage2_unit5_bn2", 
      "inputs": [[153, 0], [154, 0], [155, 0]], 
      "backward_source_id": -1
    }, 
    {
      "op": "Activation", 
      "param": {"act_type": "relu"}, 
      "name": "DBstage2_unit5_relu2", 
      "inputs": [[156, 0]], 
      "backward_source_id": -1
    }, 
    {
      "op": "null", 
      "param": {}, 
      "name": "DBstage2_unit5_conv2_weight", 
      "inputs": [], 
      "backward_source_id": -1
    }, 
    {
      "op": "Convolution", 
      "param": {
        "cudnn_off": "False", 
        "cudnn_tune": "limited_workspace", 
        "dilate": "(1,1)", 
        "kernel": "(3,3)", 
        "no_bias": "True", 
        "num_filter": "32", 
        "num_group": "1", 
        "pad": "(1,1)", 
        "stride": "(1,1)", 
        "workspace": "512"
      }, 
      "name": "DBstage2_unit5_conv2", 
      "inputs": [[157, 0], [158, 0]], 
      "backward_source_id": -1
    }, 
    {
      "op": "Concat", 
      "param": {
        "dim": "1", 
        "num_args": "2"
      }, 
      "name": "DBstage2_concat5", 
      "inputs": [[147, 0], [159, 0]], 
      "backward_source_id": -1
    }, 
    {
      "op": "null", 
      "param": {}, 
      "name": "DBstage2_unit6_bn1_gamma", 
      "inputs": [], 
      "backward_source_id": -1
    }, 
    {
      "op": "null", 
      "param": {}, 
      "name": "DBstage2_unit6_bn1_beta", 
      "inputs": [], 
      "backward_source_id": -1
    }, 
    {
      "op": "BatchNorm", 
      "param": {
        "eps": "2e-05", 
        "fix_gamma": "False", 
        "momentum": "0.9", 
        "use_global_stats": "False"
      }, 
      "name": "DBstage2_unit6_bn1", 
      "inputs": [[160, 0], [161, 0], [162, 0]], 
      "backward_source_id": -1
    }, 
    {
      "op": "Activation", 
      "param": {"act_type": "relu"}, 
      "name": "DBstage2_unit6_relu1", 
      "inputs": [[163, 0]], 
      "backward_source_id": -1
    }, 
    {
      "op": "null", 
      "param": {}, 
      "name": "DBstage2_unit6_conv1_weight", 
      "inputs": [], 
      "backward_source_id": -1
    }, 
    {
      "op": "Convolution", 
      "param": {
        "cudnn_off": "False", 
        "cudnn_tune": "limited_workspace", 
        "dilate": "(1,1)", 
        "kernel": "(1,1)", 
        "no_bias": "True", 
        "num_filter": "128", 
        "num_group": "1", 
        "pad": "(0,0)", 
        "stride": "(1,1)", 
        "workspace": "512"
      }, 
      "name": "DBstage2_unit6_conv1", 
      "inputs": [[164, 0], [165, 0]], 
      "backward_source_id": -1
    }, 
    {
      "op": "null", 
      "param": {}, 
      "name": "DBstage2_unit6_bn2_gamma", 
      "inputs": [], 
      "backward_source_id": -1
    }, 
    {
      "op": "null", 
      "param": {}, 
      "name": "DBstage2_unit6_bn2_beta", 
      "inputs": [], 
      "backward_source_id": -1
    }, 
    {
      "op": "BatchNorm", 
      "param": {
        "eps": "2e-05", 
        "fix_gamma": "False", 
        "momentum": "0.9", 
        "use_global_stats": "False"
      }, 
      "name": "DBstage2_unit6_bn2", 
      "inputs": [[166, 0], [167, 0], [168, 0]], 
      "backward_source_id": -1
    }, 
    {
      "op": "Activation", 
      "param": {"act_type": "relu"}, 
      "name": "DBstage2_unit6_relu2", 
      "inputs": [[169, 0]], 
      "backward_source_id": -1
    }, 
    {
      "op": "null", 
      "param": {}, 
      "name": "DBstage2_unit6_conv2_weight", 
      "inputs": [], 
      "backward_source_id": -1
    }, 
    {
      "op": "Convolution", 
      "param": {
        "cudnn_off": "False", 
        "cudnn_tune": "limited_workspace", 
        "dilate": "(1,1)", 
        "kernel": "(3,3)", 
        "no_bias": "True", 
        "num_filter": "32", 
        "num_group": "1", 
        "pad": "(1,1)", 
        "stride": "(1,1)", 
        "workspace": "512"
      }, 
      "name": "DBstage2_unit6_conv2", 
      "inputs": [[170, 0], [171, 0]], 
      "backward_source_id": -1
    }, 
    {
      "op": "Concat", 
      "param": {
        "dim": "1", 
        "num_args": "2"
      }, 
      "name": "DBstage2_concat6", 
      "inputs": [[160, 0], [172, 0]], 
      "backward_source_id": -1
    }, 
    {
      "op": "null", 
      "param": {}, 
      "name": "DBstage2_unit7_bn1_gamma", 
      "inputs": [], 
      "backward_source_id": -1
    }, 
    {
      "op": "null", 
      "param": {}, 
      "name": "DBstage2_unit7_bn1_beta", 
      "inputs": [], 
      "backward_source_id": -1
    }, 
    {
      "op": "BatchNorm", 
      "param": {
        "eps": "2e-05", 
        "fix_gamma": "False", 
        "momentum": "0.9", 
        "use_global_stats": "False"
      }, 
      "name": "DBstage2_unit7_bn1", 
      "inputs": [[173, 0], [174, 0], [175, 0]], 
      "backward_source_id": -1
    }, 
    {
      "op": "Activation", 
      "param": {"act_type": "relu"}, 
      "name": "DBstage2_unit7_relu1", 
      "inputs": [[176, 0]], 
      "backward_source_id": -1
    }, 
    {
      "op": "null", 
      "param": {}, 
      "name": "DBstage2_unit7_conv1_weight", 
      "inputs": [], 
      "backward_source_id": -1
    }, 
    {
      "op": "Convolution", 
      "param": {
        "cudnn_off": "False", 
        "cudnn_tune": "limited_workspace", 
        "dilate": "(1,1)", 
        "kernel": "(1,1)", 
        "no_bias": "True", 
        "num_filter": "128", 
        "num_group": "1", 
        "pad": "(0,0)", 
        "stride": "(1,1)", 
        "workspace": "512"
      }, 
      "name": "DBstage2_unit7_conv1", 
      "inputs": [[177, 0], [178, 0]], 
      "backward_source_id": -1
    }, 
    {
      "op": "null", 
      "param": {}, 
      "name": "DBstage2_unit7_bn2_gamma", 
      "inputs": [], 
      "backward_source_id": -1
    }, 
    {
      "op": "null", 
      "param": {}, 
      "name": "DBstage2_unit7_bn2_beta", 
      "inputs": [], 
      "backward_source_id": -1
    }, 
    {
      "op": "BatchNorm", 
      "param": {
        "eps": "2e-05", 
        "fix_gamma": "False", 
        "momentum": "0.9", 
        "use_global_stats": "False"
      }, 
      "name": "DBstage2_unit7_bn2", 
      "inputs": [[179, 0], [180, 0], [181, 0]], 
      "backward_source_id": -1
    }, 
    {
      "op": "Activation", 
      "param": {"act_type": "relu"}, 
      "name": "DBstage2_unit7_relu2", 
      "inputs": [[182, 0]], 
      "backward_source_id": -1
    }, 
    {
      "op": "null", 
      "param": {}, 
      "name": "DBstage2_unit7_conv2_weight", 
      "inputs": [], 
      "backward_source_id": -1
    }, 
    {
      "op": "Convolution", 
      "param": {
        "cudnn_off": "False", 
        "cudnn_tune": "limited_workspace", 
        "dilate": "(1,1)", 
        "kernel": "(3,3)", 
        "no_bias": "True", 
        "num_filter": "32", 
        "num_group": "1", 
        "pad": "(1,1)", 
        "stride": "(1,1)", 
        "workspace": "512"
      }, 
      "name": "DBstage2_unit7_conv2", 
      "inputs": [[183, 0], [184, 0]], 
      "backward_source_id": -1
    }, 
    {
      "op": "Concat", 
      "param": {
        "dim": "1", 
        "num_args": "2"
      }, 
      "name": "DBstage2_concat7", 
      "inputs": [[173, 0], [185, 0]], 
      "backward_source_id": -1
    }, 
    {
      "op": "null", 
      "param": {}, 
      "name": "DBstage2_unit8_bn1_gamma", 
      "inputs": [], 
      "backward_source_id": -1
    }, 
    {
      "op": "null", 
      "param": {}, 
      "name": "DBstage2_unit8_bn1_beta", 
      "inputs": [], 
      "backward_source_id": -1
    }, 
    {
      "op": "BatchNorm", 
      "param": {
        "eps": "2e-05", 
        "fix_gamma": "False", 
        "momentum": "0.9", 
        "use_global_stats": "False"
      }, 
      "name": "DBstage2_unit8_bn1", 
      "inputs": [[186, 0], [187, 0], [188, 0]], 
      "backward_source_id": -1
    }, 
    {
      "op": "Activation", 
      "param": {"act_type": "relu"}, 
      "name": "DBstage2_unit8_relu1", 
      "inputs": [[189, 0]], 
      "backward_source_id": -1
    }, 
    {
      "op": "null", 
      "param": {}, 
      "name": "DBstage2_unit8_conv1_weight", 
      "inputs": [], 
      "backward_source_id": -1
    }, 
    {
      "op": "Convolution", 
      "param": {
        "cudnn_off": "False", 
        "cudnn_tune": "limited_workspace", 
        "dilate": "(1,1)", 
        "kernel": "(1,1)", 
        "no_bias": "True", 
        "num_filter": "128", 
        "num_group": "1", 
        "pad": "(0,0)", 
        "stride": "(1,1)", 
        "workspace": "512"
      }, 
      "name": "DBstage2_unit8_conv1", 
      "inputs": [[190, 0], [191, 0]], 
      "backward_source_id": -1
    }, 
    {
      "op": "null", 
      "param": {}, 
      "name": "DBstage2_unit8_bn2_gamma", 
      "inputs": [], 
      "backward_source_id": -1
    }, 
    {
      "op": "null", 
      "param": {}, 
      "name": "DBstage2_unit8_bn2_beta", 
      "inputs": [], 
      "backward_source_id": -1
    }, 
    {
      "op": "BatchNorm", 
      "param": {
        "eps": "2e-05", 
        "fix_gamma": "False", 
        "momentum": "0.9", 
        "use_global_stats": "False"
      }, 
      "name": "DBstage2_unit8_bn2", 
      "inputs": [[192, 0], [193, 0], [194, 0]], 
      "backward_source_id": -1
    }, 
    {
      "op": "Activation", 
      "param": {"act_type": "relu"}, 
      "name": "DBstage2_unit8_relu2", 
      "inputs": [[195, 0]], 
      "backward_source_id": -1
    }, 
    {
      "op": "null", 
      "param": {}, 
      "name": "DBstage2_unit8_conv2_weight", 
      "inputs": [], 
      "backward_source_id": -1
    }, 
    {
      "op": "Convolution", 
      "param": {
        "cudnn_off": "False", 
        "cudnn_tune": "limited_workspace", 
        "dilate": "(1,1)", 
        "kernel": "(3,3)", 
        "no_bias": "True", 
        "num_filter": "32", 
        "num_group": "1", 
        "pad": "(1,1)", 
        "stride": "(1,1)", 
        "workspace": "512"
      }, 
      "name": "DBstage2_unit8_conv2", 
      "inputs": [[196, 0], [197, 0]], 
      "backward_source_id": -1
    }, 
    {
      "op": "Concat", 
      "param": {
        "dim": "1", 
        "num_args": "2"
      }, 
      "name": "DBstage2_concat8", 
      "inputs": [[186, 0], [198, 0]], 
      "backward_source_id": -1
    }, 
    {
      "op": "null", 
      "param": {}, 
      "name": "DBstage2_unit9_bn1_gamma", 
      "inputs": [], 
      "backward_source_id": -1
    }, 
    {
      "op": "null", 
      "param": {}, 
      "name": "DBstage2_unit9_bn1_beta", 
      "inputs": [], 
      "backward_source_id": -1
    }, 
    {
      "op": "BatchNorm", 
      "param": {
        "eps": "2e-05", 
        "fix_gamma": "False", 
        "momentum": "0.9", 
        "use_global_stats": "False"
      }, 
      "name": "DBstage2_unit9_bn1", 
      "inputs": [[199, 0], [200, 0], [201, 0]], 
      "backward_source_id": -1
    }, 
    {
      "op": "Activation", 
      "param": {"act_type": "relu"}, 
      "name": "DBstage2_unit9_relu1", 
      "inputs": [[202, 0]], 
      "backward_source_id": -1
    }, 
    {
      "op": "null", 
      "param": {}, 
      "name": "DBstage2_unit9_conv1_weight", 
      "inputs": [], 
      "backward_source_id": -1
    }, 
    {
      "op": "Convolution", 
      "param": {
        "cudnn_off": "False", 
        "cudnn_tune": "limited_workspace", 
        "dilate": "(1,1)", 
        "kernel": "(1,1)", 
        "no_bias": "True", 
        "num_filter": "128", 
        "num_group": "1", 
        "pad": "(0,0)", 
        "stride": "(1,1)", 
        "workspace": "512"
      }, 
      "name": "DBstage2_unit9_conv1", 
      "inputs": [[203, 0], [204, 0]], 
      "backward_source_id": -1
    }, 
    {
      "op": "null", 
      "param": {}, 
      "name": "DBstage2_unit9_bn2_gamma", 
      "inputs": [], 
      "backward_source_id": -1
    }, 
    {
      "op": "null", 
      "param": {}, 
      "name": "DBstage2_unit9_bn2_beta", 
      "inputs": [], 
      "backward_source_id": -1
    }, 
    {
      "op": "BatchNorm", 
      "param": {
        "eps": "2e-05", 
        "fix_gamma": "False", 
        "momentum": "0.9", 
        "use_global_stats": "False"
      }, 
      "name": "DBstage2_unit9_bn2", 
      "inputs": [[205, 0], [206, 0], [207, 0]], 
      "backward_source_id": -1
    }, 
    {
      "op": "Activation", 
      "param": {"act_type": "relu"}, 
      "name": "DBstage2_unit9_relu2", 
      "inputs": [[208, 0]], 
      "backward_source_id": -1
    }, 
    {
      "op": "null", 
      "param": {}, 
      "name": "DBstage2_unit9_conv2_weight", 
      "inputs": [], 
      "backward_source_id": -1
    }, 
    {
      "op": "Convolution", 
      "param": {
        "cudnn_off": "False", 
        "cudnn_tune": "limited_workspace", 
        "dilate": "(1,1)", 
        "kernel": "(3,3)", 
        "no_bias": "True", 
        "num_filter": "32", 
        "num_group": "1", 
        "pad": "(1,1)", 
        "stride": "(1,1)", 
        "workspace": "512"
      }, 
      "name": "DBstage2_unit9_conv2", 
      "inputs": [[209, 0], [210, 0]], 
      "backward_source_id": -1
    }, 
    {
      "op": "Concat", 
      "param": {
        "dim": "1", 
        "num_args": "2"
      }, 
      "name": "DBstage2_concat9", 
      "inputs": [[199, 0], [211, 0]], 
      "backward_source_id": -1
    }, 
    {
      "op": "null", 
      "param": {}, 
      "name": "DBstage2_unit10_bn1_gamma", 
      "inputs": [], 
      "backward_source_id": -1
    }, 
    {
      "op": "null", 
      "param": {}, 
      "name": "DBstage2_unit10_bn1_beta", 
      "inputs": [], 
      "backward_source_id": -1
    }, 
    {
      "op": "BatchNorm", 
      "param": {
        "eps": "2e-05", 
        "fix_gamma": "False", 
        "momentum": "0.9", 
        "use_global_stats": "False"
      }, 
      "name": "DBstage2_unit10_bn1", 
      "inputs": [[212, 0], [213, 0], [214, 0]], 
      "backward_source_id": -1
    }, 
    {
      "op": "Activation", 
      "param": {"act_type": "relu"}, 
      "name": "DBstage2_unit10_relu1", 
      "inputs": [[215, 0]], 
      "backward_source_id": -1
    }, 
    {
      "op": "null", 
      "param": {}, 
      "name": "DBstage2_unit10_conv1_weight", 
      "inputs": [], 
      "backward_source_id": -1
    }, 
    {
      "op": "Convolution", 
      "param": {
        "cudnn_off": "False", 
        "cudnn_tune": "limited_workspace", 
        "dilate": "(1,1)", 
        "kernel": "(1,1)", 
        "no_bias": "True", 
        "num_filter": "128", 
        "num_group": "1", 
        "pad": "(0,0)", 
        "stride": "(1,1)", 
        "workspace": "512"
      }, 
      "name": "DBstage2_unit10_conv1", 
      "inputs": [[216, 0], [217, 0]], 
      "backward_source_id": -1
    }, 
    {
      "op": "null", 
      "param": {}, 
      "name": "DBstage2_unit10_bn2_gamma", 
      "inputs": [], 
      "backward_source_id": -1
    }, 
    {
      "op": "null", 
      "param": {}, 
      "name": "DBstage2_unit10_bn2_beta", 
      "inputs": [], 
      "backward_source_id": -1
    }, 
    {
      "op": "BatchNorm", 
      "param": {
        "eps": "2e-05", 
        "fix_gamma": "False", 
        "momentum": "0.9", 
        "use_global_stats": "False"
      }, 
      "name": "DBstage2_unit10_bn2", 
      "inputs": [[218, 0], [219, 0], [220, 0]], 
      "backward_source_id": -1
    }, 
    {
      "op": "Activation", 
      "param": {"act_type": "relu"}, 
      "name": "DBstage2_unit10_relu2", 
      "inputs": [[221, 0]], 
      "backward_source_id": -1
    }, 
    {
      "op": "null", 
      "param": {}, 
      "name": "DBstage2_unit10_conv2_weight", 
      "inputs": [], 
      "backward_source_id": -1
    }, 
    {
      "op": "Convolution", 
      "param": {
        "cudnn_off": "False", 
        "cudnn_tune": "limited_workspace", 
        "dilate": "(1,1)", 
        "kernel": "(3,3)", 
        "no_bias": "True", 
        "num_filter": "32", 
        "num_group": "1", 
        "pad": "(1,1)", 
        "stride": "(1,1)", 
        "workspace": "512"
      }, 
      "name": "DBstage2_unit10_conv2", 
      "inputs": [[222, 0], [223, 0]], 
      "backward_source_id": -1
    }, 
    {
      "op": "Concat", 
      "param": {
        "dim": "1", 
        "num_args": "2"
      }, 
      "name": "DBstage2_concat10", 
      "inputs": [[212, 0], [224, 0]], 
      "backward_source_id": -1
    }, 
    {
      "op": "null", 
      "param": {}, 
      "name": "DBstage2_unit11_bn1_gamma", 
      "inputs": [], 
      "backward_source_id": -1
    }, 
    {
      "op": "null", 
      "param": {}, 
      "name": "DBstage2_unit11_bn1_beta", 
      "inputs": [], 
      "backward_source_id": -1
    }, 
    {
      "op": "BatchNorm", 
      "param": {
        "eps": "2e-05", 
        "fix_gamma": "False", 
        "momentum": "0.9", 
        "use_global_stats": "False"
      }, 
      "name": "DBstage2_unit11_bn1", 
      "inputs": [[225, 0], [226, 0], [227, 0]], 
      "backward_source_id": -1
    }, 
    {
      "op": "Activation", 
      "param": {"act_type": "relu"}, 
      "name": "DBstage2_unit11_relu1", 
      "inputs": [[228, 0]], 
      "backward_source_id": -1
    }, 
    {
      "op": "null", 
      "param": {}, 
      "name": "DBstage2_unit11_conv1_weight", 
      "inputs": [], 
      "backward_source_id": -1
    }, 
    {
      "op": "Convolution", 
      "param": {
        "cudnn_off": "False", 
        "cudnn_tune": "limited_workspace", 
        "dilate": "(1,1)", 
        "kernel": "(1,1)", 
        "no_bias": "True", 
        "num_filter": "128", 
        "num_group": "1", 
        "pad": "(0,0)", 
        "stride": "(1,1)", 
        "workspace": "512"
      }, 
      "name": "DBstage2_unit11_conv1", 
      "inputs": [[229, 0], [230, 0]], 
      "backward_source_id": -1
    }, 
    {
      "op": "null", 
      "param": {}, 
      "name": "DBstage2_unit11_bn2_gamma", 
      "inputs": [], 
      "backward_source_id": -1
    }, 
    {
      "op": "null", 
      "param": {}, 
      "name": "DBstage2_unit11_bn2_beta", 
      "inputs": [], 
      "backward_source_id": -1
    }, 
    {
      "op": "BatchNorm", 
      "param": {
        "eps": "2e-05", 
        "fix_gamma": "False", 
        "momentum": "0.9", 
        "use_global_stats": "False"
      }, 
      "name": "DBstage2_unit11_bn2", 
      "inputs": [[231, 0], [232, 0], [233, 0]], 
      "backward_source_id": -1
    }, 
    {
      "op": "Activation", 
      "param": {"act_type": "relu"}, 
      "name": "DBstage2_unit11_relu2", 
      "inputs": [[234, 0]], 
      "backward_source_id": -1
    }, 
    {
      "op": "null", 
      "param": {}, 
      "name": "DBstage2_unit11_conv2_weight", 
      "inputs": [], 
      "backward_source_id": -1
    }, 
    {
      "op": "Convolution", 
      "param": {
        "cudnn_off": "False", 
        "cudnn_tune": "limited_workspace", 
        "dilate": "(1,1)", 
        "kernel": "(3,3)", 
        "no_bias": "True", 
        "num_filter": "32", 
        "num_group": "1", 
        "pad": "(1,1)", 
        "stride": "(1,1)", 
        "workspace": "512"
      }, 
      "name": "DBstage2_unit11_conv2", 
      "inputs": [[235, 0], [236, 0]], 
      "backward_source_id": -1
    }, 
    {
      "op": "Concat", 
      "param": {
        "dim": "1", 
        "num_args": "2"
      }, 
      "name": "DBstage2_concat11", 
      "inputs": [[225, 0], [237, 0]], 
      "backward_source_id": -1
    }, 
    {
      "op": "null", 
      "param": {}, 
      "name": "DBstage2_unit12_bn1_gamma", 
      "inputs": [], 
      "backward_source_id": -1
    }, 
    {
      "op": "null", 
      "param": {}, 
      "name": "DBstage2_unit12_bn1_beta", 
      "inputs": [], 
      "backward_source_id": -1
    }, 
    {
      "op": "BatchNorm", 
      "param": {
        "eps": "2e-05", 
        "fix_gamma": "False", 
        "momentum": "0.9", 
        "use_global_stats": "False"
      }, 
      "name": "DBstage2_unit12_bn1", 
      "inputs": [[238, 0], [239, 0], [240, 0]], 
      "backward_source_id": -1
    }, 
    {
      "op": "Activation", 
      "param": {"act_type": "relu"}, 
      "name": "DBstage2_unit12_relu1", 
      "inputs": [[241, 0]], 
      "backward_source_id": -1
    }, 
    {
      "op": "null", 
      "param": {}, 
      "name": "DBstage2_unit12_conv1_weight", 
      "inputs": [], 
      "backward_source_id": -1
    }, 
    {
      "op": "Convolution", 
      "param": {
        "cudnn_off": "False", 
        "cudnn_tune": "limited_workspace", 
        "dilate": "(1,1)", 
        "kernel": "(1,1)", 
        "no_bias": "True", 
        "num_filter": "128", 
        "num_group": "1", 
        "pad": "(0,0)", 
        "stride": "(1,1)", 
        "workspace": "512"
      }, 
      "name": "DBstage2_unit12_conv1", 
      "inputs": [[242, 0], [243, 0]], 
      "backward_source_id": -1
    }, 
    {
      "op": "null", 
      "param": {}, 
      "name": "DBstage2_unit12_bn2_gamma", 
      "inputs": [], 
      "backward_source_id": -1
    }, 
    {
      "op": "null", 
      "param": {}, 
      "name": "DBstage2_unit12_bn2_beta", 
      "inputs": [], 
      "backward_source_id": -1
    }, 
    {
      "op": "BatchNorm", 
      "param": {
        "eps": "2e-05", 
        "fix_gamma": "False", 
        "momentum": "0.9", 
        "use_global_stats": "False"
      }, 
      "name": "DBstage2_unit12_bn2", 
      "inputs": [[244, 0], [245, 0], [246, 0]], 
      "backward_source_id": -1
    }, 
    {
      "op": "Activation", 
      "param": {"act_type": "relu"}, 
      "name": "DBstage2_unit12_relu2", 
      "inputs": [[247, 0]], 
      "backward_source_id": -1
    }, 
    {
      "op": "null", 
      "param": {}, 
      "name": "DBstage2_unit12_conv2_weight", 
      "inputs": [], 
      "backward_source_id": -1
    }, 
    {
      "op": "Convolution", 
      "param": {
        "cudnn_off": "False", 
        "cudnn_tune": "limited_workspace", 
        "dilate": "(1,1)", 
        "kernel": "(3,3)", 
        "no_bias": "True", 
        "num_filter": "32", 
        "num_group": "1", 
        "pad": "(1,1)", 
        "stride": "(1,1)", 
        "workspace": "512"
      }, 
      "name": "DBstage2_unit12_conv2", 
      "inputs": [[248, 0], [249, 0]], 
      "backward_source_id": -1
    }, 
    {
      "op": "Concat", 
      "param": {
        "dim": "1", 
        "num_args": "2"
      }, 
      "name": "DBstage2_concat12", 
      "inputs": [[238, 0], [250, 0]], 
      "backward_source_id": -1
    }, 
    {
      "op": "null", 
      "param": {}, 
      "name": "TBstage2_bn1_gamma", 
      "inputs": [], 
      "backward_source_id": -1
    }, 
    {
      "op": "null", 
      "param": {}, 
      "name": "TBstage2_bn1_beta", 
      "inputs": [], 
      "backward_source_id": -1
    }, 
    {
      "op": "BatchNorm", 
      "param": {
        "eps": "2e-05", 
        "fix_gamma": "False", 
        "momentum": "0.9", 
        "use_global_stats": "False"
      }, 
      "name": "TBstage2_bn1", 
      "inputs": [[251, 0], [252, 0], [253, 0]], 
      "backward_source_id": -1
    }, 
    {
      "op": "Activation", 
      "param": {"act_type": "relu"}, 
      "name": "TBstage2_relu1", 
      "inputs": [[254, 0]], 
      "backward_source_id": -1
    }, 
    {
      "op": "null", 
      "param": {}, 
      "name": "TBstage2_conv1_weight", 
      "inputs": [], 
      "backward_source_id": -1
    }, 
    {
      "op": "Convolution", 
      "param": {
        "cudnn_off": "False", 
        "cudnn_tune": "limited_workspace", 
        "dilate": "(1,1)", 
        "kernel": "(1,1)", 
        "no_bias": "True", 
        "num_filter": "256", 
        "num_group": "1", 
        "pad": "(0,0)", 
        "stride": "(1,1)", 
        "workspace": "512"
      }, 
      "name": "TBstage2_conv1", 
      "inputs": [[255, 0], [256, 0]], 
      "backward_source_id": -1
    }, 
    {
      "op": "Pooling", 
      "param": {
        "global_pool": "False", 
        "kernel": "(2,2)", 
        "pad": "(0,0)", 
        "pool_type": "avg", 
        "pooling_convention": "valid", 
        "stride": "(2,2)"
      }, 
      "name": "TBstage2_pool2", 
      "inputs": [[257, 0]], 
      "backward_source_id": -1
    }, 
    {
      "op": "null", 
      "param": {}, 
      "name": "DBstage3_unit1_bn1_gamma", 
      "inputs": [], 
      "backward_source_id": -1
    }, 
    {
      "op": "null", 
      "param": {}, 
      "name": "DBstage3_unit1_bn1_beta", 
      "inputs": [], 
      "backward_source_id": -1
    }, 
    {
      "op": "BatchNorm", 
      "param": {
        "eps": "2e-05", 
        "fix_gamma": "False", 
        "momentum": "0.9", 
        "use_global_stats": "False"
      }, 
      "name": "DBstage3_unit1_bn1", 
      "inputs": [[258, 0], [259, 0], [260, 0]], 
      "backward_source_id": -1
    }, 
    {
      "op": "Activation", 
      "param": {"act_type": "relu"}, 
      "name": "DBstage3_unit1_relu1", 
      "inputs": [[261, 0]], 
      "backward_source_id": -1
    }, 
    {
      "op": "null", 
      "param": {}, 
      "name": "DBstage3_unit1_conv1_weight", 
      "inputs": [], 
      "backward_source_id": -1
    }, 
    {
      "op": "Convolution", 
      "param": {
        "cudnn_off": "False", 
        "cudnn_tune": "limited_workspace", 
        "dilate": "(1,1)", 
        "kernel": "(1,1)", 
        "no_bias": "True", 
        "num_filter": "128", 
        "num_group": "1", 
        "pad": "(0,0)", 
        "stride": "(1,1)", 
        "workspace": "512"
      }, 
      "name": "DBstage3_unit1_conv1", 
      "inputs": [[262, 0], [263, 0]], 
      "backward_source_id": -1
    }, 
    {
      "op": "null", 
      "param": {}, 
      "name": "DBstage3_unit1_bn2_gamma", 
      "inputs": [], 
      "backward_source_id": -1
    }, 
    {
      "op": "null", 
      "param": {}, 
      "name": "DBstage3_unit1_bn2_beta", 
      "inputs": [], 
      "backward_source_id": -1
    }, 
    {
      "op": "BatchNorm", 
      "param": {
        "eps": "2e-05", 
        "fix_gamma": "False", 
        "momentum": "0.9", 
        "use_global_stats": "False"
      }, 
      "name": "DBstage3_unit1_bn2", 
      "inputs": [[264, 0], [265, 0], [266, 0]], 
      "backward_source_id": -1
    }, 
    {
      "op": "Activation", 
      "param": {"act_type": "relu"}, 
      "name": "DBstage3_unit1_relu2", 
      "inputs": [[267, 0]], 
      "backward_source_id": -1
    }, 
    {
      "op": "null", 
      "param": {}, 
      "name": "DBstage3_unit1_conv2_weight", 
      "inputs": [], 
      "backward_source_id": -1
    }, 
    {
      "op": "Convolution", 
      "param": {
        "cudnn_off": "False", 
        "cudnn_tune": "limited_workspace", 
        "dilate": "(1,1)", 
        "kernel": "(3,3)", 
        "no_bias": "True", 
        "num_filter": "32", 
        "num_group": "1", 
        "pad": "(1,1)", 
        "stride": "(1,1)", 
        "workspace": "512"
      }, 
      "name": "DBstage3_unit1_conv2", 
      "inputs": [[268, 0], [269, 0]], 
      "backward_source_id": -1
    }, 
    {
      "op": "Concat", 
      "param": {
        "dim": "1", 
        "num_args": "2"
      }, 
      "name": "DBstage3_concat1", 
      "inputs": [[258, 0], [270, 0]], 
      "backward_source_id": -1
    }, 
    {
      "op": "null", 
      "param": {}, 
      "name": "DBstage3_unit2_bn1_gamma", 
      "inputs": [], 
      "backward_source_id": -1
    }, 
    {
      "op": "null", 
      "param": {}, 
      "name": "DBstage3_unit2_bn1_beta", 
      "inputs": [], 
      "backward_source_id": -1
    }, 
    {
      "op": "BatchNorm", 
      "param": {
        "eps": "2e-05", 
        "fix_gamma": "False", 
        "momentum": "0.9", 
        "use_global_stats": "False"
      }, 
      "name": "DBstage3_unit2_bn1", 
      "inputs": [[271, 0], [272, 0], [273, 0]], 
      "backward_source_id": -1
    }, 
    {
      "op": "Activation", 
      "param": {"act_type": "relu"}, 
      "name": "DBstage3_unit2_relu1", 
      "inputs": [[274, 0]], 
      "backward_source_id": -1
    }, 
    {
      "op": "null", 
      "param": {}, 
      "name": "DBstage3_unit2_conv1_weight", 
      "inputs": [], 
      "backward_source_id": -1
    }, 
    {
      "op": "Convolution", 
      "param": {
        "cudnn_off": "False", 
        "cudnn_tune": "limited_workspace", 
        "dilate": "(1,1)", 
        "kernel": "(1,1)", 
        "no_bias": "True", 
        "num_filter": "128", 
        "num_group": "1", 
        "pad": "(0,0)", 
        "stride": "(1,1)", 
        "workspace": "512"
      }, 
      "name": "DBstage3_unit2_conv1", 
      "inputs": [[275, 0], [276, 0]], 
      "backward_source_id": -1
    }, 
    {
      "op": "null", 
      "param": {}, 
      "name": "DBstage3_unit2_bn2_gamma", 
      "inputs": [], 
      "backward_source_id": -1
    }, 
    {
      "op": "null", 
      "param": {}, 
      "name": "DBstage3_unit2_bn2_beta", 
      "inputs": [], 
      "backward_source_id": -1
    }, 
    {
      "op": "BatchNorm", 
      "param": {
        "eps": "2e-05", 
        "fix_gamma": "False", 
        "momentum": "0.9", 
        "use_global_stats": "False"
      }, 
      "name": "DBstage3_unit2_bn2", 
      "inputs": [[277, 0], [278, 0], [279, 0]], 
      "backward_source_id": -1
    }, 
    {
      "op": "Activation", 
      "param": {"act_type": "relu"}, 
      "name": "DBstage3_unit2_relu2", 
      "inputs": [[280, 0]], 
      "backward_source_id": -1
    }, 
    {
      "op": "null", 
      "param": {}, 
      "name": "DBstage3_unit2_conv2_weight", 
      "inputs": [], 
      "backward_source_id": -1
    }, 
    {
      "op": "Convolution", 
      "param": {
        "cudnn_off": "False", 
        "cudnn_tune": "limited_workspace", 
        "dilate": "(1,1)", 
        "kernel": "(3,3)", 
        "no_bias": "True", 
        "num_filter": "32", 
        "num_group": "1", 
        "pad": "(1,1)", 
        "stride": "(1,1)", 
        "workspace": "512"
      }, 
      "name": "DBstage3_unit2_conv2", 
      "inputs": [[281, 0], [282, 0]], 
      "backward_source_id": -1
    }, 
    {
      "op": "Concat", 
      "param": {
        "dim": "1", 
        "num_args": "2"
      }, 
      "name": "DBstage3_concat2", 
      "inputs": [[271, 0], [283, 0]], 
      "backward_source_id": -1
    }, 
    {
      "op": "null", 
      "param": {}, 
      "name": "DBstage3_unit3_bn1_gamma", 
      "inputs": [], 
      "backward_source_id": -1
    }, 
    {
      "op": "null", 
      "param": {}, 
      "name": "DBstage3_unit3_bn1_beta", 
      "inputs": [], 
      "backward_source_id": -1
    }, 
    {
      "op": "BatchNorm", 
      "param": {
        "eps": "2e-05", 
        "fix_gamma": "False", 
        "momentum": "0.9", 
        "use_global_stats": "False"
      }, 
      "name": "DBstage3_unit3_bn1", 
      "inputs": [[284, 0], [285, 0], [286, 0]], 
      "backward_source_id": -1
    }, 
    {
      "op": "Activation", 
      "param": {"act_type": "relu"}, 
      "name": "DBstage3_unit3_relu1", 
      "inputs": [[287, 0]], 
      "backward_source_id": -1
    }, 
    {
      "op": "null", 
      "param": {}, 
      "name": "DBstage3_unit3_conv1_weight", 
      "inputs": [], 
      "backward_source_id": -1
    }, 
    {
      "op": "Convolution", 
      "param": {
        "cudnn_off": "False", 
        "cudnn_tune": "limited_workspace", 
        "dilate": "(1,1)", 
        "kernel": "(1,1)", 
        "no_bias": "True", 
        "num_filter": "128", 
        "num_group": "1", 
        "pad": "(0,0)", 
        "stride": "(1,1)", 
        "workspace": "512"
      }, 
      "name": "DBstage3_unit3_conv1", 
      "inputs": [[288, 0], [289, 0]], 
      "backward_source_id": -1
    }, 
    {
      "op": "null", 
      "param": {}, 
      "name": "DBstage3_unit3_bn2_gamma", 
      "inputs": [], 
      "backward_source_id": -1
    }, 
    {
      "op": "null", 
      "param": {}, 
      "name": "DBstage3_unit3_bn2_beta", 
      "inputs": [], 
      "backward_source_id": -1
    }, 
    {
      "op": "BatchNorm", 
      "param": {
        "eps": "2e-05", 
        "fix_gamma": "False", 
        "momentum": "0.9", 
        "use_global_stats": "False"
      }, 
      "name": "DBstage3_unit3_bn2", 
      "inputs": [[290, 0], [291, 0], [292, 0]], 
      "backward_source_id": -1
    }, 
    {
      "op": "Activation", 
      "param": {"act_type": "relu"}, 
      "name": "DBstage3_unit3_relu2", 
      "inputs": [[293, 0]], 
      "backward_source_id": -1
    }, 
    {
      "op": "null", 
      "param": {}, 
      "name": "DBstage3_unit3_conv2_weight", 
      "inputs": [], 
      "backward_source_id": -1
    }, 
    {
      "op": "Convolution", 
      "param": {
        "cudnn_off": "False", 
        "cudnn_tune": "limited_workspace", 
        "dilate": "(1,1)", 
        "kernel": "(3,3)", 
        "no_bias": "True", 
        "num_filter": "32", 
        "num_group": "1", 
        "pad": "(1,1)", 
        "stride": "(1,1)", 
        "workspace": "512"
      }, 
      "name": "DBstage3_unit3_conv2", 
      "inputs": [[294, 0], [295, 0]], 
      "backward_source_id": -1
    }, 
    {
      "op": "Concat", 
      "param": {
        "dim": "1", 
        "num_args": "2"
      }, 
      "name": "DBstage3_concat3", 
      "inputs": [[284, 0], [296, 0]], 
      "backward_source_id": -1
    }, 
    {
      "op": "null", 
      "param": {}, 
      "name": "DBstage3_unit4_bn1_gamma", 
      "inputs": [], 
      "backward_source_id": -1
    }, 
    {
      "op": "null", 
      "param": {}, 
      "name": "DBstage3_unit4_bn1_beta", 
      "inputs": [], 
      "backward_source_id": -1
    }, 
    {
      "op": "BatchNorm", 
      "param": {
        "eps": "2e-05", 
        "fix_gamma": "False", 
        "momentum": "0.9", 
        "use_global_stats": "False"
      }, 
      "name": "DBstage3_unit4_bn1", 
      "inputs": [[297, 0], [298, 0], [299, 0]], 
      "backward_source_id": -1
    }, 
    {
      "op": "Activation", 
      "param": {"act_type": "relu"}, 
      "name": "DBstage3_unit4_relu1", 
      "inputs": [[300, 0]], 
      "backward_source_id": -1
    }, 
    {
      "op": "null", 
      "param": {}, 
      "name": "DBstage3_unit4_conv1_weight", 
      "inputs": [], 
      "backward_source_id": -1
    }, 
    {
      "op": "Convolution", 
      "param": {
        "cudnn_off": "False", 
        "cudnn_tune": "limited_workspace", 
        "dilate": "(1,1)", 
        "kernel": "(1,1)", 
        "no_bias": "True", 
        "num_filter": "128", 
        "num_group": "1", 
        "pad": "(0,0)", 
        "stride": "(1,1)", 
        "workspace": "512"
      }, 
      "name": "DBstage3_unit4_conv1", 
      "inputs": [[301, 0], [302, 0]], 
      "backward_source_id": -1
    }, 
    {
      "op": "null", 
      "param": {}, 
      "name": "DBstage3_unit4_bn2_gamma", 
      "inputs": [], 
      "backward_source_id": -1
    }, 
    {
      "op": "null", 
      "param": {}, 
      "name": "DBstage3_unit4_bn2_beta", 
      "inputs": [], 
      "backward_source_id": -1
    }, 
    {
      "op": "BatchNorm", 
      "param": {
        "eps": "2e-05", 
        "fix_gamma": "False", 
        "momentum": "0.9", 
        "use_global_stats": "False"
      }, 
      "name": "DBstage3_unit4_bn2", 
      "inputs": [[303, 0], [304, 0], [305, 0]], 
      "backward_source_id": -1
    }, 
    {
      "op": "Activation", 
      "param": {"act_type": "relu"}, 
      "name": "DBstage3_unit4_relu2", 
      "inputs": [[306, 0]], 
      "backward_source_id": -1
    }, 
    {
      "op": "null", 
      "param": {}, 
      "name": "DBstage3_unit4_conv2_weight", 
      "inputs": [], 
      "backward_source_id": -1
    }, 
    {
      "op": "Convolution", 
      "param": {
        "cudnn_off": "False", 
        "cudnn_tune": "limited_workspace", 
        "dilate": "(1,1)", 
        "kernel": "(3,3)", 
        "no_bias": "True", 
        "num_filter": "32", 
        "num_group": "1", 
        "pad": "(1,1)", 
        "stride": "(1,1)", 
        "workspace": "512"
      }, 
      "name": "DBstage3_unit4_conv2", 
      "inputs": [[307, 0], [308, 0]], 
      "backward_source_id": -1
    }, 
    {
      "op": "Concat", 
      "param": {
        "dim": "1", 
        "num_args": "2"
      }, 
      "name": "DBstage3_concat4", 
      "inputs": [[297, 0], [309, 0]], 
      "backward_source_id": -1
    }, 
    {
      "op": "null", 
      "param": {}, 
      "name": "DBstage3_unit5_bn1_gamma", 
      "inputs": [], 
      "backward_source_id": -1
    }, 
    {
      "op": "null", 
      "param": {}, 
      "name": "DBstage3_unit5_bn1_beta", 
      "inputs": [], 
      "backward_source_id": -1
    }, 
    {
      "op": "BatchNorm", 
      "param": {
        "eps": "2e-05", 
        "fix_gamma": "False", 
        "momentum": "0.9", 
        "use_global_stats": "False"
      }, 
      "name": "DBstage3_unit5_bn1", 
      "inputs": [[310, 0], [311, 0], [312, 0]], 
      "backward_source_id": -1
    }, 
    {
      "op": "Activation", 
      "param": {"act_type": "relu"}, 
      "name": "DBstage3_unit5_relu1", 
      "inputs": [[313, 0]], 
      "backward_source_id": -1
    }, 
    {
      "op": "null", 
      "param": {}, 
      "name": "DBstage3_unit5_conv1_weight", 
      "inputs": [], 
      "backward_source_id": -1
    }, 
    {
      "op": "Convolution", 
      "param": {
        "cudnn_off": "False", 
        "cudnn_tune": "limited_workspace", 
        "dilate": "(1,1)", 
        "kernel": "(1,1)", 
        "no_bias": "True", 
        "num_filter": "128", 
        "num_group": "1", 
        "pad": "(0,0)", 
        "stride": "(1,1)", 
        "workspace": "512"
      }, 
      "name": "DBstage3_unit5_conv1", 
      "inputs": [[314, 0], [315, 0]], 
      "backward_source_id": -1
    }, 
    {
      "op": "null", 
      "param": {}, 
      "name": "DBstage3_unit5_bn2_gamma", 
      "inputs": [], 
      "backward_source_id": -1
    }, 
    {
      "op": "null", 
      "param": {}, 
      "name": "DBstage3_unit5_bn2_beta", 
      "inputs": [], 
      "backward_source_id": -1
    }, 
    {
      "op": "BatchNorm", 
      "param": {
        "eps": "2e-05", 
        "fix_gamma": "False", 
        "momentum": "0.9", 
        "use_global_stats": "False"
      }, 
      "name": "DBstage3_unit5_bn2", 
      "inputs": [[316, 0], [317, 0], [318, 0]], 
      "backward_source_id": -1
    }, 
    {
      "op": "Activation", 
      "param": {"act_type": "relu"}, 
      "name": "DBstage3_unit5_relu2", 
      "inputs": [[319, 0]], 
      "backward_source_id": -1
    }, 
    {
      "op": "null", 
      "param": {}, 
      "name": "DBstage3_unit5_conv2_weight", 
      "inputs": [], 
      "backward_source_id": -1
    }, 
    {
      "op": "Convolution", 
      "param": {
        "cudnn_off": "False", 
        "cudnn_tune": "limited_workspace", 
        "dilate": "(1,1)", 
        "kernel": "(3,3)", 
        "no_bias": "True", 
        "num_filter": "32", 
        "num_group": "1", 
        "pad": "(1,1)", 
        "stride": "(1,1)", 
        "workspace": "512"
      }, 
      "name": "DBstage3_unit5_conv2", 
      "inputs": [[320, 0], [321, 0]], 
      "backward_source_id": -1
    }, 
    {
      "op": "Concat", 
      "param": {
        "dim": "1", 
        "num_args": "2"
      }, 
      "name": "DBstage3_concat5", 
      "inputs": [[310, 0], [322, 0]], 
      "backward_source_id": -1
    }, 
    {
      "op": "null", 
      "param": {}, 
      "name": "DBstage3_unit6_bn1_gamma", 
      "inputs": [], 
      "backward_source_id": -1
    }, 
    {
      "op": "null", 
      "param": {}, 
      "name": "DBstage3_unit6_bn1_beta", 
      "inputs": [], 
      "backward_source_id": -1
    }, 
    {
      "op": "BatchNorm", 
      "param": {
        "eps": "2e-05", 
        "fix_gamma": "False", 
        "momentum": "0.9", 
        "use_global_stats": "False"
      }, 
      "name": "DBstage3_unit6_bn1", 
      "inputs": [[323, 0], [324, 0], [325, 0]], 
      "backward_source_id": -1
    }, 
    {
      "op": "Activation", 
      "param": {"act_type": "relu"}, 
      "name": "DBstage3_unit6_relu1", 
      "inputs": [[326, 0]], 
      "backward_source_id": -1
    }, 
    {
      "op": "null", 
      "param": {}, 
      "name": "DBstage3_unit6_conv1_weight", 
      "inputs": [], 
      "backward_source_id": -1
    }, 
    {
      "op": "Convolution", 
      "param": {
        "cudnn_off": "False", 
        "cudnn_tune": "limited_workspace", 
        "dilate": "(1,1)", 
        "kernel": "(1,1)", 
        "no_bias": "True", 
        "num_filter": "128", 
        "num_group": "1", 
        "pad": "(0,0)", 
        "stride": "(1,1)", 
        "workspace": "512"
      }, 
      "name": "DBstage3_unit6_conv1", 
      "inputs": [[327, 0], [328, 0]], 
      "backward_source_id": -1
    }, 
    {
      "op": "null", 
      "param": {}, 
      "name": "DBstage3_unit6_bn2_gamma", 
      "inputs": [], 
      "backward_source_id": -1
    }, 
    {
      "op": "null", 
      "param": {}, 
      "name": "DBstage3_unit6_bn2_beta", 
      "inputs": [], 
      "backward_source_id": -1
    }, 
    {
      "op": "BatchNorm", 
      "param": {
        "eps": "2e-05", 
        "fix_gamma": "False", 
        "momentum": "0.9", 
        "use_global_stats": "False"
      }, 
      "name": "DBstage3_unit6_bn2", 
      "inputs": [[329, 0], [330, 0], [331, 0]], 
      "backward_source_id": -1
    }, 
    {
      "op": "Activation", 
      "param": {"act_type": "relu"}, 
      "name": "DBstage3_unit6_relu2", 
      "inputs": [[332, 0]], 
      "backward_source_id": -1
    }, 
    {
      "op": "null", 
      "param": {}, 
      "name": "DBstage3_unit6_conv2_weight", 
      "inputs": [], 
      "backward_source_id": -1
    }, 
    {
      "op": "Convolution", 
      "param": {
        "cudnn_off": "False", 
        "cudnn_tune": "limited_workspace", 
        "dilate": "(1,1)", 
        "kernel": "(3,3)", 
        "no_bias": "True", 
        "num_filter": "32", 
        "num_group": "1", 
        "pad": "(1,1)", 
        "stride": "(1,1)", 
        "workspace": "512"
      }, 
      "name": "DBstage3_unit6_conv2", 
      "inputs": [[333, 0], [334, 0]], 
      "backward_source_id": -1
    }, 
    {
      "op": "Concat", 
      "param": {
        "dim": "1", 
        "num_args": "2"
      }, 
      "name": "DBstage3_concat6", 
      "inputs": [[323, 0], [335, 0]], 
      "backward_source_id": -1
    }, 
    {
      "op": "null", 
      "param": {}, 
      "name": "DBstage3_unit7_bn1_gamma", 
      "inputs": [], 
      "backward_source_id": -1
    }, 
    {
      "op": "null", 
      "param": {}, 
      "name": "DBstage3_unit7_bn1_beta", 
      "inputs": [], 
      "backward_source_id": -1
    }, 
    {
      "op": "BatchNorm", 
      "param": {
        "eps": "2e-05", 
        "fix_gamma": "False", 
        "momentum": "0.9", 
        "use_global_stats": "False"
      }, 
      "name": "DBstage3_unit7_bn1", 
      "inputs": [[336, 0], [337, 0], [338, 0]], 
      "backward_source_id": -1
    }, 
    {
      "op": "Activation", 
      "param": {"act_type": "relu"}, 
      "name": "DBstage3_unit7_relu1", 
      "inputs": [[339, 0]], 
      "backward_source_id": -1
    }, 
    {
      "op": "null", 
      "param": {}, 
      "name": "DBstage3_unit7_conv1_weight", 
      "inputs": [], 
      "backward_source_id": -1
    }, 
    {
      "op": "Convolution", 
      "param": {
        "cudnn_off": "False", 
        "cudnn_tune": "limited_workspace", 
        "dilate": "(1,1)", 
        "kernel": "(1,1)", 
        "no_bias": "True", 
        "num_filter": "128", 
        "num_group": "1", 
        "pad": "(0,0)", 
        "stride": "(1,1)", 
        "workspace": "512"
      }, 
      "name": "DBstage3_unit7_conv1", 
      "inputs": [[340, 0], [341, 0]], 
      "backward_source_id": -1
    }, 
    {
      "op": "null", 
      "param": {}, 
      "name": "DBstage3_unit7_bn2_gamma", 
      "inputs": [], 
      "backward_source_id": -1
    }, 
    {
      "op": "null", 
      "param": {}, 
      "name": "DBstage3_unit7_bn2_beta", 
      "inputs": [], 
      "backward_source_id": -1
    }, 
    {
      "op": "BatchNorm", 
      "param": {
        "eps": "2e-05", 
        "fix_gamma": "False", 
        "momentum": "0.9", 
        "use_global_stats": "False"
      }, 
      "name": "DBstage3_unit7_bn2", 
      "inputs": [[342, 0], [343, 0], [344, 0]], 
      "backward_source_id": -1
    }, 
    {
      "op": "Activation", 
      "param": {"act_type": "relu"}, 
      "name": "DBstage3_unit7_relu2", 
      "inputs": [[345, 0]], 
      "backward_source_id": -1
    }, 
    {
      "op": "null", 
      "param": {}, 
      "name": "DBstage3_unit7_conv2_weight", 
      "inputs": [], 
      "backward_source_id": -1
    }, 
    {
      "op": "Convolution", 
      "param": {
        "cudnn_off": "False", 
        "cudnn_tune": "limited_workspace", 
        "dilate": "(1,1)", 
        "kernel": "(3,3)", 
        "no_bias": "True", 
        "num_filter": "32", 
        "num_group": "1", 
        "pad": "(1,1)", 
        "stride": "(1,1)", 
        "workspace": "512"
      }, 
      "name": "DBstage3_unit7_conv2", 
      "inputs": [[346, 0], [347, 0]], 
      "backward_source_id": -1
    }, 
    {
      "op": "Concat", 
      "param": {
        "dim": "1", 
        "num_args": "2"
      }, 
      "name": "DBstage3_concat7", 
      "inputs": [[336, 0], [348, 0]], 
      "backward_source_id": -1
    }, 
    {
      "op": "null", 
      "param": {}, 
      "name": "DBstage3_unit8_bn1_gamma", 
      "inputs": [], 
      "backward_source_id": -1
    }, 
    {
      "op": "null", 
      "param": {}, 
      "name": "DBstage3_unit8_bn1_beta", 
      "inputs": [], 
      "backward_source_id": -1
    }, 
    {
      "op": "BatchNorm", 
      "param": {
        "eps": "2e-05", 
        "fix_gamma": "False", 
        "momentum": "0.9", 
        "use_global_stats": "False"
      }, 
      "name": "DBstage3_unit8_bn1", 
      "inputs": [[349, 0], [350, 0], [351, 0]], 
      "backward_source_id": -1
    }, 
    {
      "op": "Activation", 
      "param": {"act_type": "relu"}, 
      "name": "DBstage3_unit8_relu1", 
      "inputs": [[352, 0]], 
      "backward_source_id": -1
    }, 
    {
      "op": "null", 
      "param": {}, 
      "name": "DBstage3_unit8_conv1_weight", 
      "inputs": [], 
      "backward_source_id": -1
    }, 
    {
      "op": "Convolution", 
      "param": {
        "cudnn_off": "False", 
        "cudnn_tune": "limited_workspace", 
        "dilate": "(1,1)", 
        "kernel": "(1,1)", 
        "no_bias": "True", 
        "num_filter": "128", 
        "num_group": "1", 
        "pad": "(0,0)", 
        "stride": "(1,1)", 
        "workspace": "512"
      }, 
      "name": "DBstage3_unit8_conv1", 
      "inputs": [[353, 0], [354, 0]], 
      "backward_source_id": -1
    }, 
    {
      "op": "null", 
      "param": {}, 
      "name": "DBstage3_unit8_bn2_gamma", 
      "inputs": [], 
      "backward_source_id": -1
    }, 
    {
      "op": "null", 
      "param": {}, 
      "name": "DBstage3_unit8_bn2_beta", 
      "inputs": [], 
      "backward_source_id": -1
    }, 
    {
      "op": "BatchNorm", 
      "param": {
        "eps": "2e-05", 
        "fix_gamma": "False", 
        "momentum": "0.9", 
        "use_global_stats": "False"
      }, 
      "name": "DBstage3_unit8_bn2", 
      "inputs": [[355, 0], [356, 0], [357, 0]], 
      "backward_source_id": -1
    }, 
    {
      "op": "Activation", 
      "param": {"act_type": "relu"}, 
      "name": "DBstage3_unit8_relu2", 
      "inputs": [[358, 0]], 
      "backward_source_id": -1
    }, 
    {
      "op": "null", 
      "param": {}, 
      "name": "DBstage3_unit8_conv2_weight", 
      "inputs": [], 
      "backward_source_id": -1
    }, 
    {
      "op": "Convolution", 
      "param": {
        "cudnn_off": "False", 
        "cudnn_tune": "limited_workspace", 
        "dilate": "(1,1)", 
        "kernel": "(3,3)", 
        "no_bias": "True", 
        "num_filter": "32", 
        "num_group": "1", 
        "pad": "(1,1)", 
        "stride": "(1,1)", 
        "workspace": "512"
      }, 
      "name": "DBstage3_unit8_conv2", 
      "inputs": [[359, 0], [360, 0]], 
      "backward_source_id": -1
    }, 
    {
      "op": "Concat", 
      "param": {
        "dim": "1", 
        "num_args": "2"
      }, 
      "name": "DBstage3_concat8", 
      "inputs": [[349, 0], [361, 0]], 
      "backward_source_id": -1
    }, 
    {
      "op": "null", 
      "param": {}, 
      "name": "DBstage3_unit9_bn1_gamma", 
      "inputs": [], 
      "backward_source_id": -1
    }, 
    {
      "op": "null", 
      "param": {}, 
      "name": "DBstage3_unit9_bn1_beta", 
      "inputs": [], 
      "backward_source_id": -1
    }, 
    {
      "op": "BatchNorm", 
      "param": {
        "eps": "2e-05", 
        "fix_gamma": "False", 
        "momentum": "0.9", 
        "use_global_stats": "False"
      }, 
      "name": "DBstage3_unit9_bn1", 
      "inputs": [[362, 0], [363, 0], [364, 0]], 
      "backward_source_id": -1
    }, 
    {
      "op": "Activation", 
      "param": {"act_type": "relu"}, 
      "name": "DBstage3_unit9_relu1", 
      "inputs": [[365, 0]], 
      "backward_source_id": -1
    }, 
    {
      "op": "null", 
      "param": {}, 
      "name": "DBstage3_unit9_conv1_weight", 
      "inputs": [], 
      "backward_source_id": -1
    }, 
    {
      "op": "Convolution", 
      "param": {
        "cudnn_off": "False", 
        "cudnn_tune": "limited_workspace", 
        "dilate": "(1,1)", 
        "kernel": "(1,1)", 
        "no_bias": "True", 
        "num_filter": "128", 
        "num_group": "1", 
        "pad": "(0,0)", 
        "stride": "(1,1)", 
        "workspace": "512"
      }, 
      "name": "DBstage3_unit9_conv1", 
      "inputs": [[366, 0], [367, 0]], 
      "backward_source_id": -1
    }, 
    {
      "op": "null", 
      "param": {}, 
      "name": "DBstage3_unit9_bn2_gamma", 
      "inputs": [], 
      "backward_source_id": -1
    }, 
    {
      "op": "null", 
      "param": {}, 
      "name": "DBstage3_unit9_bn2_beta", 
      "inputs": [], 
      "backward_source_id": -1
    }, 
    {
      "op": "BatchNorm", 
      "param": {
        "eps": "2e-05", 
        "fix_gamma": "False", 
        "momentum": "0.9", 
        "use_global_stats": "False"
      }, 
      "name": "DBstage3_unit9_bn2", 
      "inputs": [[368, 0], [369, 0], [370, 0]], 
      "backward_source_id": -1
    }, 
    {
      "op": "Activation", 
      "param": {"act_type": "relu"}, 
      "name": "DBstage3_unit9_relu2", 
      "inputs": [[371, 0]], 
      "backward_source_id": -1
    }, 
    {
      "op": "null", 
      "param": {}, 
      "name": "DBstage3_unit9_conv2_weight", 
      "inputs": [], 
      "backward_source_id": -1
    }, 
    {
      "op": "Convolution", 
      "param": {
        "cudnn_off": "False", 
        "cudnn_tune": "limited_workspace", 
        "dilate": "(1,1)", 
        "kernel": "(3,3)", 
        "no_bias": "True", 
        "num_filter": "32", 
        "num_group": "1", 
        "pad": "(1,1)", 
        "stride": "(1,1)", 
        "workspace": "512"
      }, 
      "name": "DBstage3_unit9_conv2", 
      "inputs": [[372, 0], [373, 0]], 
      "backward_source_id": -1
    }, 
    {
      "op": "Concat", 
      "param": {
        "dim": "1", 
        "num_args": "2"
      }, 
      "name": "DBstage3_concat9", 
      "inputs": [[362, 0], [374, 0]], 
      "backward_source_id": -1
    }, 
    {
      "op": "null", 
      "param": {}, 
      "name": "DBstage3_unit10_bn1_gamma", 
      "inputs": [], 
      "backward_source_id": -1
    }, 
    {
      "op": "null", 
      "param": {}, 
      "name": "DBstage3_unit10_bn1_beta", 
      "inputs": [], 
      "backward_source_id": -1
    }, 
    {
      "op": "BatchNorm", 
      "param": {
        "eps": "2e-05", 
        "fix_gamma": "False", 
        "momentum": "0.9", 
        "use_global_stats": "False"
      }, 
      "name": "DBstage3_unit10_bn1", 
      "inputs": [[375, 0], [376, 0], [377, 0]], 
      "backward_source_id": -1
    }, 
    {
      "op": "Activation", 
      "param": {"act_type": "relu"}, 
      "name": "DBstage3_unit10_relu1", 
      "inputs": [[378, 0]], 
      "backward_source_id": -1
    }, 
    {
      "op": "null", 
      "param": {}, 
      "name": "DBstage3_unit10_conv1_weight", 
      "inputs": [], 
      "backward_source_id": -1
    }, 
    {
      "op": "Convolution", 
      "param": {
        "cudnn_off": "False", 
        "cudnn_tune": "limited_workspace", 
        "dilate": "(1,1)", 
        "kernel": "(1,1)", 
        "no_bias": "True", 
        "num_filter": "128", 
        "num_group": "1", 
        "pad": "(0,0)", 
        "stride": "(1,1)", 
        "workspace": "512"
      }, 
      "name": "DBstage3_unit10_conv1", 
      "inputs": [[379, 0], [380, 0]], 
      "backward_source_id": -1
    }, 
    {
      "op": "null", 
      "param": {}, 
      "name": "DBstage3_unit10_bn2_gamma", 
      "inputs": [], 
      "backward_source_id": -1
    }, 
    {
      "op": "null", 
      "param": {}, 
      "name": "DBstage3_unit10_bn2_beta", 
      "inputs": [], 
      "backward_source_id": -1
    }, 
    {
      "op": "BatchNorm", 
      "param": {
        "eps": "2e-05", 
        "fix_gamma": "False", 
        "momentum": "0.9", 
        "use_global_stats": "False"
      }, 
      "name": "DBstage3_unit10_bn2", 
      "inputs": [[381, 0], [382, 0], [383, 0]], 
      "backward_source_id": -1
    }, 
    {
      "op": "Activation", 
      "param": {"act_type": "relu"}, 
      "name": "DBstage3_unit10_relu2", 
      "inputs": [[384, 0]], 
      "backward_source_id": -1
    }, 
    {
      "op": "null", 
      "param": {}, 
      "name": "DBstage3_unit10_conv2_weight", 
      "inputs": [], 
      "backward_source_id": -1
    }, 
    {
      "op": "Convolution", 
      "param": {
        "cudnn_off": "False", 
        "cudnn_tune": "limited_workspace", 
        "dilate": "(1,1)", 
        "kernel": "(3,3)", 
        "no_bias": "True", 
        "num_filter": "32", 
        "num_group": "1", 
        "pad": "(1,1)", 
        "stride": "(1,1)", 
        "workspace": "512"
      }, 
      "name": "DBstage3_unit10_conv2", 
      "inputs": [[385, 0], [386, 0]], 
      "backward_source_id": -1
    }, 
    {
      "op": "Concat", 
      "param": {
        "dim": "1", 
        "num_args": "2"
      }, 
      "name": "DBstage3_concat10", 
      "inputs": [[375, 0], [387, 0]], 
      "backward_source_id": -1
    }, 
    {
      "op": "null", 
      "param": {}, 
      "name": "DBstage3_unit11_bn1_gamma", 
      "inputs": [], 
      "backward_source_id": -1
    }, 
    {
      "op": "null", 
      "param": {}, 
      "name": "DBstage3_unit11_bn1_beta", 
      "inputs": [], 
      "backward_source_id": -1
    }, 
    {
      "op": "BatchNorm", 
      "param": {
        "eps": "2e-05", 
        "fix_gamma": "False", 
        "momentum": "0.9", 
        "use_global_stats": "False"
      }, 
      "name": "DBstage3_unit11_bn1", 
      "inputs": [[388, 0], [389, 0], [390, 0]], 
      "backward_source_id": -1
    }, 
    {
      "op": "Activation", 
      "param": {"act_type": "relu"}, 
      "name": "DBstage3_unit11_relu1", 
      "inputs": [[391, 0]], 
      "backward_source_id": -1
    }, 
    {
      "op": "null", 
      "param": {}, 
      "name": "DBstage3_unit11_conv1_weight", 
      "inputs": [], 
      "backward_source_id": -1
    }, 
    {
      "op": "Convolution", 
      "param": {
        "cudnn_off": "False", 
        "cudnn_tune": "limited_workspace", 
        "dilate": "(1,1)", 
        "kernel": "(1,1)", 
        "no_bias": "True", 
        "num_filter": "128", 
        "num_group": "1", 
        "pad": "(0,0)", 
        "stride": "(1,1)", 
        "workspace": "512"
      }, 
      "name": "DBstage3_unit11_conv1", 
      "inputs": [[392, 0], [393, 0]], 
      "backward_source_id": -1
    }, 
    {
      "op": "null", 
      "param": {}, 
      "name": "DBstage3_unit11_bn2_gamma", 
      "inputs": [], 
      "backward_source_id": -1
    }, 
    {
      "op": "null", 
      "param": {}, 
      "name": "DBstage3_unit11_bn2_beta", 
      "inputs": [], 
      "backward_source_id": -1
    }, 
    {
      "op": "BatchNorm", 
      "param": {
        "eps": "2e-05", 
        "fix_gamma": "False", 
        "momentum": "0.9", 
        "use_global_stats": "False"
      }, 
      "name": "DBstage3_unit11_bn2", 
      "inputs": [[394, 0], [395, 0], [396, 0]], 
      "backward_source_id": -1
    }, 
    {
      "op": "Activation", 
      "param": {"act_type": "relu"}, 
      "name": "DBstage3_unit11_relu2", 
      "inputs": [[397, 0]], 
      "backward_source_id": -1
    }, 
    {
      "op": "null", 
      "param": {}, 
      "name": "DBstage3_unit11_conv2_weight", 
      "inputs": [], 
      "backward_source_id": -1
    }, 
    {
      "op": "Convolution", 
      "param": {
        "cudnn_off": "False", 
        "cudnn_tune": "limited_workspace", 
        "dilate": "(1,1)", 
        "kernel": "(3,3)", 
        "no_bias": "True", 
        "num_filter": "32", 
        "num_group": "1", 
        "pad": "(1,1)", 
        "stride": "(1,1)", 
        "workspace": "512"
      }, 
      "name": "DBstage3_unit11_conv2", 
      "inputs": [[398, 0], [399, 0]], 
      "backward_source_id": -1
    }, 
    {
      "op": "Concat", 
      "param": {
        "dim": "1", 
        "num_args": "2"
      }, 
      "name": "DBstage3_concat11", 
      "inputs": [[388, 0], [400, 0]], 
      "backward_source_id": -1
    }, 
    {
      "op": "null", 
      "param": {}, 
      "name": "DBstage3_unit12_bn1_gamma", 
      "inputs": [], 
      "backward_source_id": -1
    }, 
    {
      "op": "null", 
      "param": {}, 
      "name": "DBstage3_unit12_bn1_beta", 
      "inputs": [], 
      "backward_source_id": -1
    }, 
    {
      "op": "BatchNorm", 
      "param": {
        "eps": "2e-05", 
        "fix_gamma": "False", 
        "momentum": "0.9", 
        "use_global_stats": "False"
      }, 
      "name": "DBstage3_unit12_bn1", 
      "inputs": [[401, 0], [402, 0], [403, 0]], 
      "backward_source_id": -1
    }, 
    {
      "op": "Activation", 
      "param": {"act_type": "relu"}, 
      "name": "DBstage3_unit12_relu1", 
      "inputs": [[404, 0]], 
      "backward_source_id": -1
    }, 
    {
      "op": "null", 
      "param": {}, 
      "name": "DBstage3_unit12_conv1_weight", 
      "inputs": [], 
      "backward_source_id": -1
    }, 
    {
      "op": "Convolution", 
      "param": {
        "cudnn_off": "False", 
        "cudnn_tune": "limited_workspace", 
        "dilate": "(1,1)", 
        "kernel": "(1,1)", 
        "no_bias": "True", 
        "num_filter": "128", 
        "num_group": "1", 
        "pad": "(0,0)", 
        "stride": "(1,1)", 
        "workspace": "512"
      }, 
      "name": "DBstage3_unit12_conv1", 
      "inputs": [[405, 0], [406, 0]], 
      "backward_source_id": -1
    }, 
    {
      "op": "null", 
      "param": {}, 
      "name": "DBstage3_unit12_bn2_gamma", 
      "inputs": [], 
      "backward_source_id": -1
    }, 
    {
      "op": "null", 
      "param": {}, 
      "name": "DBstage3_unit12_bn2_beta", 
      "inputs": [], 
      "backward_source_id": -1
    }, 
    {
      "op": "BatchNorm", 
      "param": {
        "eps": "2e-05", 
        "fix_gamma": "False", 
        "momentum": "0.9", 
        "use_global_stats": "False"
      }, 
      "name": "DBstage3_unit12_bn2", 
      "inputs": [[407, 0], [408, 0], [409, 0]], 
      "backward_source_id": -1
    }, 
    {
      "op": "Activation", 
      "param": {"act_type": "relu"}, 
      "name": "DBstage3_unit12_relu2", 
      "inputs": [[410, 0]], 
      "backward_source_id": -1
    }, 
    {
      "op": "null", 
      "param": {}, 
      "name": "DBstage3_unit12_conv2_weight", 
      "inputs": [], 
      "backward_source_id": -1
    }, 
    {
      "op": "Convolution", 
      "param": {
        "cudnn_off": "False", 
        "cudnn_tune": "limited_workspace", 
        "dilate": "(1,1)", 
        "kernel": "(3,3)", 
        "no_bias": "True", 
        "num_filter": "32", 
        "num_group": "1", 
        "pad": "(1,1)", 
        "stride": "(1,1)", 
        "workspace": "512"
      }, 
      "name": "DBstage3_unit12_conv2", 
      "inputs": [[411, 0], [412, 0]], 
      "backward_source_id": -1
    }, 
    {
      "op": "Concat", 
      "param": {
        "dim": "1", 
        "num_args": "2"
      }, 
      "name": "DBstage3_concat12", 
      "inputs": [[401, 0], [413, 0]], 
      "backward_source_id": -1
    }, 
    {
      "op": "null", 
      "param": {}, 
      "name": "DBstage3_unit13_bn1_gamma", 
      "inputs": [], 
      "backward_source_id": -1
    }, 
    {
      "op": "null", 
      "param": {}, 
      "name": "DBstage3_unit13_bn1_beta", 
      "inputs": [], 
      "backward_source_id": -1
    }, 
    {
      "op": "BatchNorm", 
      "param": {
        "eps": "2e-05", 
        "fix_gamma": "False", 
        "momentum": "0.9", 
        "use_global_stats": "False"
      }, 
      "name": "DBstage3_unit13_bn1", 
      "inputs": [[414, 0], [415, 0], [416, 0]], 
      "backward_source_id": -1
    }, 
    {
      "op": "Activation", 
      "param": {"act_type": "relu"}, 
      "name": "DBstage3_unit13_relu1", 
      "inputs": [[417, 0]], 
      "backward_source_id": -1
    }, 
    {
      "op": "null", 
      "param": {}, 
      "name": "DBstage3_unit13_conv1_weight", 
      "inputs": [], 
      "backward_source_id": -1
    }, 
    {
      "op": "Convolution", 
      "param": {
        "cudnn_off": "False", 
        "cudnn_tune": "limited_workspace", 
        "dilate": "(1,1)", 
        "kernel": "(1,1)", 
        "no_bias": "True", 
        "num_filter": "128", 
        "num_group": "1", 
        "pad": "(0,0)", 
        "stride": "(1,1)", 
        "workspace": "512"
      }, 
      "name": "DBstage3_unit13_conv1", 
      "inputs": [[418, 0], [419, 0]], 
      "backward_source_id": -1
    }, 
    {
      "op": "null", 
      "param": {}, 
      "name": "DBstage3_unit13_bn2_gamma", 
      "inputs": [], 
      "backward_source_id": -1
    }, 
    {
      "op": "null", 
      "param": {}, 
      "name": "DBstage3_unit13_bn2_beta", 
      "inputs": [], 
      "backward_source_id": -1
    }, 
    {
      "op": "BatchNorm", 
      "param": {
        "eps": "2e-05", 
        "fix_gamma": "False", 
        "momentum": "0.9", 
        "use_global_stats": "False"
      }, 
      "name": "DBstage3_unit13_bn2", 
      "inputs": [[420, 0], [421, 0], [422, 0]], 
      "backward_source_id": -1
    }, 
    {
      "op": "Activation", 
      "param": {"act_type": "relu"}, 
      "name": "DBstage3_unit13_relu2", 
      "inputs": [[423, 0]], 
      "backward_source_id": -1
    }, 
    {
      "op": "null", 
      "param": {}, 
      "name": "DBstage3_unit13_conv2_weight", 
      "inputs": [], 
      "backward_source_id": -1
    }, 
    {
      "op": "Convolution", 
      "param": {
        "cudnn_off": "False", 
        "cudnn_tune": "limited_workspace", 
        "dilate": "(1,1)", 
        "kernel": "(3,3)", 
        "no_bias": "True", 
        "num_filter": "32", 
        "num_group": "1", 
        "pad": "(1,1)", 
        "stride": "(1,1)", 
        "workspace": "512"
      }, 
      "name": "DBstage3_unit13_conv2", 
      "inputs": [[424, 0], [425, 0]], 
      "backward_source_id": -1
    }, 
    {
      "op": "Concat", 
      "param": {
        "dim": "1", 
        "num_args": "2"
      }, 
      "name": "DBstage3_concat13", 
      "inputs": [[414, 0], [426, 0]], 
      "backward_source_id": -1
    }, 
    {
      "op": "null", 
      "param": {}, 
      "name": "DBstage3_unit14_bn1_gamma", 
      "inputs": [], 
      "backward_source_id": -1
    }, 
    {
      "op": "null", 
      "param": {}, 
      "name": "DBstage3_unit14_bn1_beta", 
      "inputs": [], 
      "backward_source_id": -1
    }, 
    {
      "op": "BatchNorm", 
      "param": {
        "eps": "2e-05", 
        "fix_gamma": "False", 
        "momentum": "0.9", 
        "use_global_stats": "False"
      }, 
      "name": "DBstage3_unit14_bn1", 
      "inputs": [[427, 0], [428, 0], [429, 0]], 
      "backward_source_id": -1
    }, 
    {
      "op": "Activation", 
      "param": {"act_type": "relu"}, 
      "name": "DBstage3_unit14_relu1", 
      "inputs": [[430, 0]], 
      "backward_source_id": -1
    }, 
    {
      "op": "null", 
      "param": {}, 
      "name": "DBstage3_unit14_conv1_weight", 
      "inputs": [], 
      "backward_source_id": -1
    }, 
    {
      "op": "Convolution", 
      "param": {
        "cudnn_off": "False", 
        "cudnn_tune": "limited_workspace", 
        "dilate": "(1,1)", 
        "kernel": "(1,1)", 
        "no_bias": "True", 
        "num_filter": "128", 
        "num_group": "1", 
        "pad": "(0,0)", 
        "stride": "(1,1)", 
        "workspace": "512"
      }, 
      "name": "DBstage3_unit14_conv1", 
      "inputs": [[431, 0], [432, 0]], 
      "backward_source_id": -1
    }, 
    {
      "op": "null", 
      "param": {}, 
      "name": "DBstage3_unit14_bn2_gamma", 
      "inputs": [], 
      "backward_source_id": -1
    }, 
    {
      "op": "null", 
      "param": {}, 
      "name": "DBstage3_unit14_bn2_beta", 
      "inputs": [], 
      "backward_source_id": -1
    }, 
    {
      "op": "BatchNorm", 
      "param": {
        "eps": "2e-05", 
        "fix_gamma": "False", 
        "momentum": "0.9", 
        "use_global_stats": "False"
      }, 
      "name": "DBstage3_unit14_bn2", 
      "inputs": [[433, 0], [434, 0], [435, 0]], 
      "backward_source_id": -1
    }, 
    {
      "op": "Activation", 
      "param": {"act_type": "relu"}, 
      "name": "DBstage3_unit14_relu2", 
      "inputs": [[436, 0]], 
      "backward_source_id": -1
    }, 
    {
      "op": "null", 
      "param": {}, 
      "name": "DBstage3_unit14_conv2_weight", 
      "inputs": [], 
      "backward_source_id": -1
    }, 
    {
      "op": "Convolution", 
      "param": {
        "cudnn_off": "False", 
        "cudnn_tune": "limited_workspace", 
        "dilate": "(1,1)", 
        "kernel": "(3,3)", 
        "no_bias": "True", 
        "num_filter": "32", 
        "num_group": "1", 
        "pad": "(1,1)", 
        "stride": "(1,1)", 
        "workspace": "512"
      }, 
      "name": "DBstage3_unit14_conv2", 
      "inputs": [[437, 0], [438, 0]], 
      "backward_source_id": -1
    }, 
    {
      "op": "Concat", 
      "param": {
        "dim": "1", 
        "num_args": "2"
      }, 
      "name": "DBstage3_concat14", 
      "inputs": [[427, 0], [439, 0]], 
      "backward_source_id": -1
    }, 
    {
      "op": "null", 
      "param": {}, 
      "name": "DBstage3_unit15_bn1_gamma", 
      "inputs": [], 
      "backward_source_id": -1
    }, 
    {
      "op": "null", 
      "param": {}, 
      "name": "DBstage3_unit15_bn1_beta", 
      "inputs": [], 
      "backward_source_id": -1
    }, 
    {
      "op": "BatchNorm", 
      "param": {
        "eps": "2e-05", 
        "fix_gamma": "False", 
        "momentum": "0.9", 
        "use_global_stats": "False"
      }, 
      "name": "DBstage3_unit15_bn1", 
      "inputs": [[440, 0], [441, 0], [442, 0]], 
      "backward_source_id": -1
    }, 
    {
      "op": "Activation", 
      "param": {"act_type": "relu"}, 
      "name": "DBstage3_unit15_relu1", 
      "inputs": [[443, 0]], 
      "backward_source_id": -1
    }, 
    {
      "op": "null", 
      "param": {}, 
      "name": "DBstage3_unit15_conv1_weight", 
      "inputs": [], 
      "backward_source_id": -1
    }, 
    {
      "op": "Convolution", 
      "param": {
        "cudnn_off": "False", 
        "cudnn_tune": "limited_workspace", 
        "dilate": "(1,1)", 
        "kernel": "(1,1)", 
        "no_bias": "True", 
        "num_filter": "128", 
        "num_group": "1", 
        "pad": "(0,0)", 
        "stride": "(1,1)", 
        "workspace": "512"
      }, 
      "name": "DBstage3_unit15_conv1", 
      "inputs": [[444, 0], [445, 0]], 
      "backward_source_id": -1
    }, 
    {
      "op": "null", 
      "param": {}, 
      "name": "DBstage3_unit15_bn2_gamma", 
      "inputs": [], 
      "backward_source_id": -1
    }, 
    {
      "op": "null", 
      "param": {}, 
      "name": "DBstage3_unit15_bn2_beta", 
      "inputs": [], 
      "backward_source_id": -1
    }, 
    {
      "op": "BatchNorm", 
      "param": {
        "eps": "2e-05", 
        "fix_gamma": "False", 
        "momentum": "0.9", 
        "use_global_stats": "False"
      }, 
      "name": "DBstage3_unit15_bn2", 
      "inputs": [[446, 0], [447, 0], [448, 0]], 
      "backward_source_id": -1
    }, 
    {
      "op": "Activation", 
      "param": {"act_type": "relu"}, 
      "name": "DBstage3_unit15_relu2", 
      "inputs": [[449, 0]], 
      "backward_source_id": -1
    }, 
    {
      "op": "null", 
      "param": {}, 
      "name": "DBstage3_unit15_conv2_weight", 
      "inputs": [], 
      "backward_source_id": -1
    }, 
    {
      "op": "Convolution", 
      "param": {
        "cudnn_off": "False", 
        "cudnn_tune": "limited_workspace", 
        "dilate": "(1,1)", 
        "kernel": "(3,3)", 
        "no_bias": "True", 
        "num_filter": "32", 
        "num_group": "1", 
        "pad": "(1,1)", 
        "stride": "(1,1)", 
        "workspace": "512"
      }, 
      "name": "DBstage3_unit15_conv2", 
      "inputs": [[450, 0], [451, 0]], 
      "backward_source_id": -1
    }, 
    {
      "op": "Concat", 
      "param": {
        "dim": "1", 
        "num_args": "2"
      }, 
      "name": "DBstage3_concat15", 
      "inputs": [[440, 0], [452, 0]], 
      "backward_source_id": -1
    }, 
    {
      "op": "null", 
      "param": {}, 
      "name": "DBstage3_unit16_bn1_gamma", 
      "inputs": [], 
      "backward_source_id": -1
    }, 
    {
      "op": "null", 
      "param": {}, 
      "name": "DBstage3_unit16_bn1_beta", 
      "inputs": [], 
      "backward_source_id": -1
    }, 
    {
      "op": "BatchNorm", 
      "param": {
        "eps": "2e-05", 
        "fix_gamma": "False", 
        "momentum": "0.9", 
        "use_global_stats": "False"
      }, 
      "name": "DBstage3_unit16_bn1", 
      "inputs": [[453, 0], [454, 0], [455, 0]], 
      "backward_source_id": -1
    }, 
    {
      "op": "Activation", 
      "param": {"act_type": "relu"}, 
      "name": "DBstage3_unit16_relu1", 
      "inputs": [[456, 0]], 
      "backward_source_id": -1
    }, 
    {
      "op": "null", 
      "param": {}, 
      "name": "DBstage3_unit16_conv1_weight", 
      "inputs": [], 
      "backward_source_id": -1
    }, 
    {
      "op": "Convolution", 
      "param": {
        "cudnn_off": "False", 
        "cudnn_tune": "limited_workspace", 
        "dilate": "(1,1)", 
        "kernel": "(1,1)", 
        "no_bias": "True", 
        "num_filter": "128", 
        "num_group": "1", 
        "pad": "(0,0)", 
        "stride": "(1,1)", 
        "workspace": "512"
      }, 
      "name": "DBstage3_unit16_conv1", 
      "inputs": [[457, 0], [458, 0]], 
      "backward_source_id": -1
    }, 
    {
      "op": "null", 
      "param": {}, 
      "name": "DBstage3_unit16_bn2_gamma", 
      "inputs": [], 
      "backward_source_id": -1
    }, 
    {
      "op": "null", 
      "param": {}, 
      "name": "DBstage3_unit16_bn2_beta", 
      "inputs": [], 
      "backward_source_id": -1
    }, 
    {
      "op": "BatchNorm", 
      "param": {
        "eps": "2e-05", 
        "fix_gamma": "False", 
        "momentum": "0.9", 
        "use_global_stats": "False"
      }, 
      "name": "DBstage3_unit16_bn2", 
      "inputs": [[459, 0], [460, 0], [461, 0]], 
      "backward_source_id": -1
    }, 
    {
      "op": "Activation", 
      "param": {"act_type": "relu"}, 
      "name": "DBstage3_unit16_relu2", 
      "inputs": [[462, 0]], 
      "backward_source_id": -1
    }, 
    {
      "op": "null", 
      "param": {}, 
      "name": "DBstage3_unit16_conv2_weight", 
      "inputs": [], 
      "backward_source_id": -1
    }, 
    {
      "op": "Convolution", 
      "param": {
        "cudnn_off": "False", 
        "cudnn_tune": "limited_workspace", 
        "dilate": "(1,1)", 
        "kernel": "(3,3)", 
        "no_bias": "True", 
        "num_filter": "32", 
        "num_group": "1", 
        "pad": "(1,1)", 
        "stride": "(1,1)", 
        "workspace": "512"
      }, 
      "name": "DBstage3_unit16_conv2", 
      "inputs": [[463, 0], [464, 0]], 
      "backward_source_id": -1
    }, 
    {
      "op": "Concat", 
      "param": {
        "dim": "1", 
        "num_args": "2"
      }, 
      "name": "DBstage3_concat16", 
      "inputs": [[453, 0], [465, 0]], 
      "backward_source_id": -1
    }, 
    {
      "op": "null", 
      "param": {}, 
      "name": "DBstage3_unit17_bn1_gamma", 
      "inputs": [], 
      "backward_source_id": -1
    }, 
    {
      "op": "null", 
      "param": {}, 
      "name": "DBstage3_unit17_bn1_beta", 
      "inputs": [], 
      "backward_source_id": -1
    }, 
    {
      "op": "BatchNorm", 
      "param": {
        "eps": "2e-05", 
        "fix_gamma": "False", 
        "momentum": "0.9", 
        "use_global_stats": "False"
      }, 
      "name": "DBstage3_unit17_bn1", 
      "inputs": [[466, 0], [467, 0], [468, 0]], 
      "backward_source_id": -1
    }, 
    {
      "op": "Activation", 
      "param": {"act_type": "relu"}, 
      "name": "DBstage3_unit17_relu1", 
      "inputs": [[469, 0]], 
      "backward_source_id": -1
    }, 
    {
      "op": "null", 
      "param": {}, 
      "name": "DBstage3_unit17_conv1_weight", 
      "inputs": [], 
      "backward_source_id": -1
    }, 
    {
      "op": "Convolution", 
      "param": {
        "cudnn_off": "False", 
        "cudnn_tune": "limited_workspace", 
        "dilate": "(1,1)", 
        "kernel": "(1,1)", 
        "no_bias": "True", 
        "num_filter": "128", 
        "num_group": "1", 
        "pad": "(0,0)", 
        "stride": "(1,1)", 
        "workspace": "512"
      }, 
      "name": "DBstage3_unit17_conv1", 
      "inputs": [[470, 0], [471, 0]], 
      "backward_source_id": -1
    }, 
    {
      "op": "null", 
      "param": {}, 
      "name": "DBstage3_unit17_bn2_gamma", 
      "inputs": [], 
      "backward_source_id": -1
    }, 
    {
      "op": "null", 
      "param": {}, 
      "name": "DBstage3_unit17_bn2_beta", 
      "inputs": [], 
      "backward_source_id": -1
    }, 
    {
      "op": "BatchNorm", 
      "param": {
        "eps": "2e-05", 
        "fix_gamma": "False", 
        "momentum": "0.9", 
        "use_global_stats": "False"
      }, 
      "name": "DBstage3_unit17_bn2", 
      "inputs": [[472, 0], [473, 0], [474, 0]], 
      "backward_source_id": -1
    }, 
    {
      "op": "Activation", 
      "param": {"act_type": "relu"}, 
      "name": "DBstage3_unit17_relu2", 
      "inputs": [[475, 0]], 
      "backward_source_id": -1
    }, 
    {
      "op": "null", 
      "param": {}, 
      "name": "DBstage3_unit17_conv2_weight", 
      "inputs": [], 
      "backward_source_id": -1
    }, 
    {
      "op": "Convolution", 
      "param": {
        "cudnn_off": "False", 
        "cudnn_tune": "limited_workspace", 
        "dilate": "(1,1)", 
        "kernel": "(3,3)", 
        "no_bias": "True", 
        "num_filter": "32", 
        "num_group": "1", 
        "pad": "(1,1)", 
        "stride": "(1,1)", 
        "workspace": "512"
      }, 
      "name": "DBstage3_unit17_conv2", 
      "inputs": [[476, 0], [477, 0]], 
      "backward_source_id": -1
    }, 
    {
      "op": "Concat", 
      "param": {
        "dim": "1", 
        "num_args": "2"
      }, 
      "name": "DBstage3_concat17", 
      "inputs": [[466, 0], [478, 0]], 
      "backward_source_id": -1
    }, 
    {
      "op": "null", 
      "param": {}, 
      "name": "DBstage3_unit18_bn1_gamma", 
      "inputs": [], 
      "backward_source_id": -1
    }, 
    {
      "op": "null", 
      "param": {}, 
      "name": "DBstage3_unit18_bn1_beta", 
      "inputs": [], 
      "backward_source_id": -1
    }, 
    {
      "op": "BatchNorm", 
      "param": {
        "eps": "2e-05", 
        "fix_gamma": "False", 
        "momentum": "0.9", 
        "use_global_stats": "False"
      }, 
      "name": "DBstage3_unit18_bn1", 
      "inputs": [[479, 0], [480, 0], [481, 0]], 
      "backward_source_id": -1
    }, 
    {
      "op": "Activation", 
      "param": {"act_type": "relu"}, 
      "name": "DBstage3_unit18_relu1", 
      "inputs": [[482, 0]], 
      "backward_source_id": -1
    }, 
    {
      "op": "null", 
      "param": {}, 
      "name": "DBstage3_unit18_conv1_weight", 
      "inputs": [], 
      "backward_source_id": -1
    }, 
    {
      "op": "Convolution", 
      "param": {
        "cudnn_off": "False", 
        "cudnn_tune": "limited_workspace", 
        "dilate": "(1,1)", 
        "kernel": "(1,1)", 
        "no_bias": "True", 
        "num_filter": "128", 
        "num_group": "1", 
        "pad": "(0,0)", 
        "stride": "(1,1)", 
        "workspace": "512"
      }, 
      "name": "DBstage3_unit18_conv1", 
      "inputs": [[483, 0], [484, 0]], 
      "backward_source_id": -1
    }, 
    {
      "op": "null", 
      "param": {}, 
      "name": "DBstage3_unit18_bn2_gamma", 
      "inputs": [], 
      "backward_source_id": -1
    }, 
    {
      "op": "null", 
      "param": {}, 
      "name": "DBstage3_unit18_bn2_beta", 
      "inputs": [], 
      "backward_source_id": -1
    }, 
    {
      "op": "BatchNorm", 
      "param": {
        "eps": "2e-05", 
        "fix_gamma": "False", 
        "momentum": "0.9", 
        "use_global_stats": "False"
      }, 
      "name": "DBstage3_unit18_bn2", 
      "inputs": [[485, 0], [486, 0], [487, 0]], 
      "backward_source_id": -1
    }, 
    {
      "op": "Activation", 
      "param": {"act_type": "relu"}, 
      "name": "DBstage3_unit18_relu2", 
      "inputs": [[488, 0]], 
      "backward_source_id": -1
    }, 
    {
      "op": "null", 
      "param": {}, 
      "name": "DBstage3_unit18_conv2_weight", 
      "inputs": [], 
      "backward_source_id": -1
    }, 
    {
      "op": "Convolution", 
      "param": {
        "cudnn_off": "False", 
        "cudnn_tune": "limited_workspace", 
        "dilate": "(1,1)", 
        "kernel": "(3,3)", 
        "no_bias": "True", 
        "num_filter": "32", 
        "num_group": "1", 
        "pad": "(1,1)", 
        "stride": "(1,1)", 
        "workspace": "512"
      }, 
      "name": "DBstage3_unit18_conv2", 
      "inputs": [[489, 0], [490, 0]], 
      "backward_source_id": -1
    }, 
    {
      "op": "Concat", 
      "param": {
        "dim": "1", 
        "num_args": "2"
      }, 
      "name": "DBstage3_concat18", 
      "inputs": [[479, 0], [491, 0]], 
      "backward_source_id": -1
    }, 
    {
      "op": "null", 
      "param": {}, 
      "name": "DBstage3_unit19_bn1_gamma", 
      "inputs": [], 
      "backward_source_id": -1
    }, 
    {
      "op": "null", 
      "param": {}, 
      "name": "DBstage3_unit19_bn1_beta", 
      "inputs": [], 
      "backward_source_id": -1
    }, 
    {
      "op": "BatchNorm", 
      "param": {
        "eps": "2e-05", 
        "fix_gamma": "False", 
        "momentum": "0.9", 
        "use_global_stats": "False"
      }, 
      "name": "DBstage3_unit19_bn1", 
      "inputs": [[492, 0], [493, 0], [494, 0]], 
      "backward_source_id": -1
    }, 
    {
      "op": "Activation", 
      "param": {"act_type": "relu"}, 
      "name": "DBstage3_unit19_relu1", 
      "inputs": [[495, 0]], 
      "backward_source_id": -1
    }, 
    {
      "op": "null", 
      "param": {}, 
      "name": "DBstage3_unit19_conv1_weight", 
      "inputs": [], 
      "backward_source_id": -1
    }, 
    {
      "op": "Convolution", 
      "param": {
        "cudnn_off": "False", 
        "cudnn_tune": "limited_workspace", 
        "dilate": "(1,1)", 
        "kernel": "(1,1)", 
        "no_bias": "True", 
        "num_filter": "128", 
        "num_group": "1", 
        "pad": "(0,0)", 
        "stride": "(1,1)", 
        "workspace": "512"
      }, 
      "name": "DBstage3_unit19_conv1", 
      "inputs": [[496, 0], [497, 0]], 
      "backward_source_id": -1
    }, 
    {
      "op": "null", 
      "param": {}, 
      "name": "DBstage3_unit19_bn2_gamma", 
      "inputs": [], 
      "backward_source_id": -1
    }, 
    {
      "op": "null", 
      "param": {}, 
      "name": "DBstage3_unit19_bn2_beta", 
      "inputs": [], 
      "backward_source_id": -1
    }, 
    {
      "op": "BatchNorm", 
      "param": {
        "eps": "2e-05", 
        "fix_gamma": "False", 
        "momentum": "0.9", 
        "use_global_stats": "False"
      }, 
      "name": "DBstage3_unit19_bn2", 
      "inputs": [[498, 0], [499, 0], [500, 0]], 
      "backward_source_id": -1
    }, 
    {
      "op": "Activation", 
      "param": {"act_type": "relu"}, 
      "name": "DBstage3_unit19_relu2", 
      "inputs": [[501, 0]], 
      "backward_source_id": -1
    }, 
    {
      "op": "null", 
      "param": {}, 
      "name": "DBstage3_unit19_conv2_weight", 
      "inputs": [], 
      "backward_source_id": -1
    }, 
    {
      "op": "Convolution", 
      "param": {
        "cudnn_off": "False", 
        "cudnn_tune": "limited_workspace", 
        "dilate": "(1,1)", 
        "kernel": "(3,3)", 
        "no_bias": "True", 
        "num_filter": "32", 
        "num_group": "1", 
        "pad": "(1,1)", 
        "stride": "(1,1)", 
        "workspace": "512"
      }, 
      "name": "DBstage3_unit19_conv2", 
      "inputs": [[502, 0], [503, 0]], 
      "backward_source_id": -1
    }, 
    {
      "op": "Concat", 
      "param": {
        "dim": "1", 
        "num_args": "2"
      }, 
      "name": "DBstage3_concat19", 
      "inputs": [[492, 0], [504, 0]], 
      "backward_source_id": -1
    }, 
    {
      "op": "null", 
      "param": {}, 
      "name": "DBstage3_unit20_bn1_gamma", 
      "inputs": [], 
      "backward_source_id": -1
    }, 
    {
      "op": "null", 
      "param": {}, 
      "name": "DBstage3_unit20_bn1_beta", 
      "inputs": [], 
      "backward_source_id": -1
    }, 
    {
      "op": "BatchNorm", 
      "param": {
        "eps": "2e-05", 
        "fix_gamma": "False", 
        "momentum": "0.9", 
        "use_global_stats": "False"
      }, 
      "name": "DBstage3_unit20_bn1", 
      "inputs": [[505, 0], [506, 0], [507, 0]], 
      "backward_source_id": -1
    }, 
    {
      "op": "Activation", 
      "param": {"act_type": "relu"}, 
      "name": "DBstage3_unit20_relu1", 
      "inputs": [[508, 0]], 
      "backward_source_id": -1
    }, 
    {
      "op": "null", 
      "param": {}, 
      "name": "DBstage3_unit20_conv1_weight", 
      "inputs": [], 
      "backward_source_id": -1
    }, 
    {
      "op": "Convolution", 
      "param": {
        "cudnn_off": "False", 
        "cudnn_tune": "limited_workspace", 
        "dilate": "(1,1)", 
        "kernel": "(1,1)", 
        "no_bias": "True", 
        "num_filter": "128", 
        "num_group": "1", 
        "pad": "(0,0)", 
        "stride": "(1,1)", 
        "workspace": "512"
      }, 
      "name": "DBstage3_unit20_conv1", 
      "inputs": [[509, 0], [510, 0]], 
      "backward_source_id": -1
    }, 
    {
      "op": "null", 
      "param": {}, 
      "name": "DBstage3_unit20_bn2_gamma", 
      "inputs": [], 
      "backward_source_id": -1
    }, 
    {
      "op": "null", 
      "param": {}, 
      "name": "DBstage3_unit20_bn2_beta", 
      "inputs": [], 
      "backward_source_id": -1
    }, 
    {
      "op": "BatchNorm", 
      "param": {
        "eps": "2e-05", 
        "fix_gamma": "False", 
        "momentum": "0.9", 
        "use_global_stats": "False"
      }, 
      "name": "DBstage3_unit20_bn2", 
      "inputs": [[511, 0], [512, 0], [513, 0]], 
      "backward_source_id": -1
    }, 
    {
      "op": "Activation", 
      "param": {"act_type": "relu"}, 
      "name": "DBstage3_unit20_relu2", 
      "inputs": [[514, 0]], 
      "backward_source_id": -1
    }, 
    {
      "op": "null", 
      "param": {}, 
      "name": "DBstage3_unit20_conv2_weight", 
      "inputs": [], 
      "backward_source_id": -1
    }, 
    {
      "op": "Convolution", 
      "param": {
        "cudnn_off": "False", 
        "cudnn_tune": "limited_workspace", 
        "dilate": "(1,1)", 
        "kernel": "(3,3)", 
        "no_bias": "True", 
        "num_filter": "32", 
        "num_group": "1", 
        "pad": "(1,1)", 
        "stride": "(1,1)", 
        "workspace": "512"
      }, 
      "name": "DBstage3_unit20_conv2", 
      "inputs": [[515, 0], [516, 0]], 
      "backward_source_id": -1
    }, 
    {
      "op": "Concat", 
      "param": {
        "dim": "1", 
        "num_args": "2"
      }, 
      "name": "DBstage3_concat20", 
      "inputs": [[505, 0], [517, 0]], 
      "backward_source_id": -1
    }, 
    {
      "op": "null", 
      "param": {}, 
      "name": "DBstage3_unit21_bn1_gamma", 
      "inputs": [], 
      "backward_source_id": -1
    }, 
    {
      "op": "null", 
      "param": {}, 
      "name": "DBstage3_unit21_bn1_beta", 
      "inputs": [], 
      "backward_source_id": -1
    }, 
    {
      "op": "BatchNorm", 
      "param": {
        "eps": "2e-05", 
        "fix_gamma": "False", 
        "momentum": "0.9", 
        "use_global_stats": "False"
      }, 
      "name": "DBstage3_unit21_bn1", 
      "inputs": [[518, 0], [519, 0], [520, 0]], 
      "backward_source_id": -1
    }, 
    {
      "op": "Activation", 
      "param": {"act_type": "relu"}, 
      "name": "DBstage3_unit21_relu1", 
      "inputs": [[521, 0]], 
      "backward_source_id": -1
    }, 
    {
      "op": "null", 
      "param": {}, 
      "name": "DBstage3_unit21_conv1_weight", 
      "inputs": [], 
      "backward_source_id": -1
    }, 
    {
      "op": "Convolution", 
      "param": {
        "cudnn_off": "False", 
        "cudnn_tune": "limited_workspace", 
        "dilate": "(1,1)", 
        "kernel": "(1,1)", 
        "no_bias": "True", 
        "num_filter": "128", 
        "num_group": "1", 
        "pad": "(0,0)", 
        "stride": "(1,1)", 
        "workspace": "512"
      }, 
      "name": "DBstage3_unit21_conv1", 
      "inputs": [[522, 0], [523, 0]], 
      "backward_source_id": -1
    }, 
    {
      "op": "null", 
      "param": {}, 
      "name": "DBstage3_unit21_bn2_gamma", 
      "inputs": [], 
      "backward_source_id": -1
    }, 
    {
      "op": "null", 
      "param": {}, 
      "name": "DBstage3_unit21_bn2_beta", 
      "inputs": [], 
      "backward_source_id": -1
    }, 
    {
      "op": "BatchNorm", 
      "param": {
        "eps": "2e-05", 
        "fix_gamma": "False", 
        "momentum": "0.9", 
        "use_global_stats": "False"
      }, 
      "name": "DBstage3_unit21_bn2", 
      "inputs": [[524, 0], [525, 0], [526, 0]], 
      "backward_source_id": -1
    }, 
    {
      "op": "Activation", 
      "param": {"act_type": "relu"}, 
      "name": "DBstage3_unit21_relu2", 
      "inputs": [[527, 0]], 
      "backward_source_id": -1
    }, 
    {
      "op": "null", 
      "param": {}, 
      "name": "DBstage3_unit21_conv2_weight", 
      "inputs": [], 
      "backward_source_id": -1
    }, 
    {
      "op": "Convolution", 
      "param": {
        "cudnn_off": "False", 
        "cudnn_tune": "limited_workspace", 
        "dilate": "(1,1)", 
        "kernel": "(3,3)", 
        "no_bias": "True", 
        "num_filter": "32", 
        "num_group": "1", 
        "pad": "(1,1)", 
        "stride": "(1,1)", 
        "workspace": "512"
      }, 
      "name": "DBstage3_unit21_conv2", 
      "inputs": [[528, 0], [529, 0]], 
      "backward_source_id": -1
    }, 
    {
      "op": "Concat", 
      "param": {
        "dim": "1", 
        "num_args": "2"
      }, 
      "name": "DBstage3_concat21", 
      "inputs": [[518, 0], [530, 0]], 
      "backward_source_id": -1
    }, 
    {
      "op": "null", 
      "param": {}, 
      "name": "DBstage3_unit22_bn1_gamma", 
      "inputs": [], 
      "backward_source_id": -1
    }, 
    {
      "op": "null", 
      "param": {}, 
      "name": "DBstage3_unit22_bn1_beta", 
      "inputs": [], 
      "backward_source_id": -1
    }, 
    {
      "op": "BatchNorm", 
      "param": {
        "eps": "2e-05", 
        "fix_gamma": "False", 
        "momentum": "0.9", 
        "use_global_stats": "False"
      }, 
      "name": "DBstage3_unit22_bn1", 
      "inputs": [[531, 0], [532, 0], [533, 0]], 
      "backward_source_id": -1
    }, 
    {
      "op": "Activation", 
      "param": {"act_type": "relu"}, 
      "name": "DBstage3_unit22_relu1", 
      "inputs": [[534, 0]], 
      "backward_source_id": -1
    }, 
    {
      "op": "null", 
      "param": {}, 
      "name": "DBstage3_unit22_conv1_weight", 
      "inputs": [], 
      "backward_source_id": -1
    }, 
    {
      "op": "Convolution", 
      "param": {
        "cudnn_off": "False", 
        "cudnn_tune": "limited_workspace", 
        "dilate": "(1,1)", 
        "kernel": "(1,1)", 
        "no_bias": "True", 
        "num_filter": "128", 
        "num_group": "1", 
        "pad": "(0,0)", 
        "stride": "(1,1)", 
        "workspace": "512"
      }, 
      "name": "DBstage3_unit22_conv1", 
      "inputs": [[535, 0], [536, 0]], 
      "backward_source_id": -1
    }, 
    {
      "op": "null", 
      "param": {}, 
      "name": "DBstage3_unit22_bn2_gamma", 
      "inputs": [], 
      "backward_source_id": -1
    }, 
    {
      "op": "null", 
      "param": {}, 
      "name": "DBstage3_unit22_bn2_beta", 
      "inputs": [], 
      "backward_source_id": -1
    }, 
    {
      "op": "BatchNorm", 
      "param": {
        "eps": "2e-05", 
        "fix_gamma": "False", 
        "momentum": "0.9", 
        "use_global_stats": "False"
      }, 
      "name": "DBstage3_unit22_bn2", 
      "inputs": [[537, 0], [538, 0], [539, 0]], 
      "backward_source_id": -1
    }, 
    {
      "op": "Activation", 
      "param": {"act_type": "relu"}, 
      "name": "DBstage3_unit22_relu2", 
      "inputs": [[540, 0]], 
      "backward_source_id": -1
    }, 
    {
      "op": "null", 
      "param": {}, 
      "name": "DBstage3_unit22_conv2_weight", 
      "inputs": [], 
      "backward_source_id": -1
    }, 
    {
      "op": "Convolution", 
      "param": {
        "cudnn_off": "False", 
        "cudnn_tune": "limited_workspace", 
        "dilate": "(1,1)", 
        "kernel": "(3,3)", 
        "no_bias": "True", 
        "num_filter": "32", 
        "num_group": "1", 
        "pad": "(1,1)", 
        "stride": "(1,1)", 
        "workspace": "512"
      }, 
      "name": "DBstage3_unit22_conv2", 
      "inputs": [[541, 0], [542, 0]], 
      "backward_source_id": -1
    }, 
    {
      "op": "Concat", 
      "param": {
        "dim": "1", 
        "num_args": "2"
      }, 
      "name": "DBstage3_concat22", 
      "inputs": [[531, 0], [543, 0]], 
      "backward_source_id": -1
    }, 
    {
      "op": "null", 
      "param": {}, 
      "name": "DBstage3_unit23_bn1_gamma", 
      "inputs": [], 
      "backward_source_id": -1
    }, 
    {
      "op": "null", 
      "param": {}, 
      "name": "DBstage3_unit23_bn1_beta", 
      "inputs": [], 
      "backward_source_id": -1
    }, 
    {
      "op": "BatchNorm", 
      "param": {
        "eps": "2e-05", 
        "fix_gamma": "False", 
        "momentum": "0.9", 
        "use_global_stats": "False"
      }, 
      "name": "DBstage3_unit23_bn1", 
      "inputs": [[544, 0], [545, 0], [546, 0]], 
      "backward_source_id": -1
    }, 
    {
      "op": "Activation", 
      "param": {"act_type": "relu"}, 
      "name": "DBstage3_unit23_relu1", 
      "inputs": [[547, 0]], 
      "backward_source_id": -1
    }, 
    {
      "op": "null", 
      "param": {}, 
      "name": "DBstage3_unit23_conv1_weight", 
      "inputs": [], 
      "backward_source_id": -1
    }, 
    {
      "op": "Convolution", 
      "param": {
        "cudnn_off": "False", 
        "cudnn_tune": "limited_workspace", 
        "dilate": "(1,1)", 
        "kernel": "(1,1)", 
        "no_bias": "True", 
        "num_filter": "128", 
        "num_group": "1", 
        "pad": "(0,0)", 
        "stride": "(1,1)", 
        "workspace": "512"
      }, 
      "name": "DBstage3_unit23_conv1", 
      "inputs": [[548, 0], [549, 0]], 
      "backward_source_id": -1
    }, 
    {
      "op": "null", 
      "param": {}, 
      "name": "DBstage3_unit23_bn2_gamma", 
      "inputs": [], 
      "backward_source_id": -1
    }, 
    {
      "op": "null", 
      "param": {}, 
      "name": "DBstage3_unit23_bn2_beta", 
      "inputs": [], 
      "backward_source_id": -1
    }, 
    {
      "op": "BatchNorm", 
      "param": {
        "eps": "2e-05", 
        "fix_gamma": "False", 
        "momentum": "0.9", 
        "use_global_stats": "False"
      }, 
      "name": "DBstage3_unit23_bn2", 
      "inputs": [[550, 0], [551, 0], [552, 0]], 
      "backward_source_id": -1
    }, 
    {
      "op": "Activation", 
      "param": {"act_type": "relu"}, 
      "name": "DBstage3_unit23_relu2", 
      "inputs": [[553, 0]], 
      "backward_source_id": -1
    }, 
    {
      "op": "null", 
      "param": {}, 
      "name": "DBstage3_unit23_conv2_weight", 
      "inputs": [], 
      "backward_source_id": -1
    }, 
    {
      "op": "Convolution", 
      "param": {
        "cudnn_off": "False", 
        "cudnn_tune": "limited_workspace", 
        "dilate": "(1,1)", 
        "kernel": "(3,3)", 
        "no_bias": "True", 
        "num_filter": "32", 
        "num_group": "1", 
        "pad": "(1,1)", 
        "stride": "(1,1)", 
        "workspace": "512"
      }, 
      "name": "DBstage3_unit23_conv2", 
      "inputs": [[554, 0], [555, 0]], 
      "backward_source_id": -1
    }, 
    {
      "op": "Concat", 
      "param": {
        "dim": "1", 
        "num_args": "2"
      }, 
      "name": "DBstage3_concat23", 
      "inputs": [[544, 0], [556, 0]], 
      "backward_source_id": -1
    }, 
    {
      "op": "null", 
      "param": {}, 
      "name": "DBstage3_unit24_bn1_gamma", 
      "inputs": [], 
      "backward_source_id": -1
    }, 
    {
      "op": "null", 
      "param": {}, 
      "name": "DBstage3_unit24_bn1_beta", 
      "inputs": [], 
      "backward_source_id": -1
    }, 
    {
      "op": "BatchNorm", 
      "param": {
        "eps": "2e-05", 
        "fix_gamma": "False", 
        "momentum": "0.9", 
        "use_global_stats": "False"
      }, 
      "name": "DBstage3_unit24_bn1", 
      "inputs": [[557, 0], [558, 0], [559, 0]], 
      "backward_source_id": -1
    }, 
    {
      "op": "Activation", 
      "param": {"act_type": "relu"}, 
      "name": "DBstage3_unit24_relu1", 
      "inputs": [[560, 0]], 
      "backward_source_id": -1
    }, 
    {
      "op": "null", 
      "param": {}, 
      "name": "DBstage3_unit24_conv1_weight", 
      "inputs": [], 
      "backward_source_id": -1
    }, 
    {
      "op": "Convolution", 
      "param": {
        "cudnn_off": "False", 
        "cudnn_tune": "limited_workspace", 
        "dilate": "(1,1)", 
        "kernel": "(1,1)", 
        "no_bias": "True", 
        "num_filter": "128", 
        "num_group": "1", 
        "pad": "(0,0)", 
        "stride": "(1,1)", 
        "workspace": "512"
      }, 
      "name": "DBstage3_unit24_conv1", 
      "inputs": [[561, 0], [562, 0]], 
      "backward_source_id": -1
    }, 
    {
      "op": "null", 
      "param": {}, 
      "name": "DBstage3_unit24_bn2_gamma", 
      "inputs": [], 
      "backward_source_id": -1
    }, 
    {
      "op": "null", 
      "param": {}, 
      "name": "DBstage3_unit24_bn2_beta", 
      "inputs": [], 
      "backward_source_id": -1
    }, 
    {
      "op": "BatchNorm", 
      "param": {
        "eps": "2e-05", 
        "fix_gamma": "False", 
        "momentum": "0.9", 
        "use_global_stats": "False"
      }, 
      "name": "DBstage3_unit24_bn2", 
      "inputs": [[563, 0], [564, 0], [565, 0]], 
      "backward_source_id": -1
    }, 
    {
      "op": "Activation", 
      "param": {"act_type": "relu"}, 
      "name": "DBstage3_unit24_relu2", 
      "inputs": [[566, 0]], 
      "backward_source_id": -1
    }, 
    {
      "op": "null", 
      "param": {}, 
      "name": "DBstage3_unit24_conv2_weight", 
      "inputs": [], 
      "backward_source_id": -1
    }, 
    {
      "op": "Convolution", 
      "param": {
        "cudnn_off": "False", 
        "cudnn_tune": "limited_workspace", 
        "dilate": "(1,1)", 
        "kernel": "(3,3)", 
        "no_bias": "True", 
        "num_filter": "32", 
        "num_group": "1", 
        "pad": "(1,1)", 
        "stride": "(1,1)", 
        "workspace": "512"
      }, 
      "name": "DBstage3_unit24_conv2", 
      "inputs": [[567, 0], [568, 0]], 
      "backward_source_id": -1
    }, 
    {
      "op": "Concat", 
      "param": {
        "dim": "1", 
        "num_args": "2"
      }, 
      "name": "DBstage3_concat24", 
      "inputs": [[557, 0], [569, 0]], 
      "backward_source_id": -1
    }, 
    {
      "op": "null", 
      "param": {}, 
      "name": "DBstage3_unit25_bn1_gamma", 
      "inputs": [], 
      "backward_source_id": -1
    }, 
    {
      "op": "null", 
      "param": {}, 
      "name": "DBstage3_unit25_bn1_beta", 
      "inputs": [], 
      "backward_source_id": -1
    }, 
    {
      "op": "BatchNorm", 
      "param": {
        "eps": "2e-05", 
        "fix_gamma": "False", 
        "momentum": "0.9", 
        "use_global_stats": "False"
      }, 
      "name": "DBstage3_unit25_bn1", 
      "inputs": [[570, 0], [571, 0], [572, 0]], 
      "backward_source_id": -1
    }, 
    {
      "op": "Activation", 
      "param": {"act_type": "relu"}, 
      "name": "DBstage3_unit25_relu1", 
      "inputs": [[573, 0]], 
      "backward_source_id": -1
    }, 
    {
      "op": "null", 
      "param": {}, 
      "name": "DBstage3_unit25_conv1_weight", 
      "inputs": [], 
      "backward_source_id": -1
    }, 
    {
      "op": "Convolution", 
      "param": {
        "cudnn_off": "False", 
        "cudnn_tune": "limited_workspace", 
        "dilate": "(1,1)", 
        "kernel": "(1,1)", 
        "no_bias": "True", 
        "num_filter": "128", 
        "num_group": "1", 
        "pad": "(0,0)", 
        "stride": "(1,1)", 
        "workspace": "512"
      }, 
      "name": "DBstage3_unit25_conv1", 
      "inputs": [[574, 0], [575, 0]], 
      "backward_source_id": -1
    }, 
    {
      "op": "null", 
      "param": {}, 
      "name": "DBstage3_unit25_bn2_gamma", 
      "inputs": [], 
      "backward_source_id": -1
    }, 
    {
      "op": "null", 
      "param": {}, 
      "name": "DBstage3_unit25_bn2_beta", 
      "inputs": [], 
      "backward_source_id": -1
    }, 
    {
      "op": "BatchNorm", 
      "param": {
        "eps": "2e-05", 
        "fix_gamma": "False", 
        "momentum": "0.9", 
        "use_global_stats": "False"
      }, 
      "name": "DBstage3_unit25_bn2", 
      "inputs": [[576, 0], [577, 0], [578, 0]], 
      "backward_source_id": -1
    }, 
    {
      "op": "Activation", 
      "param": {"act_type": "relu"}, 
      "name": "DBstage3_unit25_relu2", 
      "inputs": [[579, 0]], 
      "backward_source_id": -1
    }, 
    {
      "op": "null", 
      "param": {}, 
      "name": "DBstage3_unit25_conv2_weight", 
      "inputs": [], 
      "backward_source_id": -1
    }, 
    {
      "op": "Convolution", 
      "param": {
        "cudnn_off": "False", 
        "cudnn_tune": "limited_workspace", 
        "dilate": "(1,1)", 
        "kernel": "(3,3)", 
        "no_bias": "True", 
        "num_filter": "32", 
        "num_group": "1", 
        "pad": "(1,1)", 
        "stride": "(1,1)", 
        "workspace": "512"
      }, 
      "name": "DBstage3_unit25_conv2", 
      "inputs": [[580, 0], [581, 0]], 
      "backward_source_id": -1
    }, 
    {
      "op": "Concat", 
      "param": {
        "dim": "1", 
        "num_args": "2"
      }, 
      "name": "DBstage3_concat25", 
      "inputs": [[570, 0], [582, 0]], 
      "backward_source_id": -1
    }, 
    {
      "op": "null", 
      "param": {}, 
      "name": "DBstage3_unit26_bn1_gamma", 
      "inputs": [], 
      "backward_source_id": -1
    }, 
    {
      "op": "null", 
      "param": {}, 
      "name": "DBstage3_unit26_bn1_beta", 
      "inputs": [], 
      "backward_source_id": -1
    }, 
    {
      "op": "BatchNorm", 
      "param": {
        "eps": "2e-05", 
        "fix_gamma": "False", 
        "momentum": "0.9", 
        "use_global_stats": "False"
      }, 
      "name": "DBstage3_unit26_bn1", 
      "inputs": [[583, 0], [584, 0], [585, 0]], 
      "backward_source_id": -1
    }, 
    {
      "op": "Activation", 
      "param": {"act_type": "relu"}, 
      "name": "DBstage3_unit26_relu1", 
      "inputs": [[586, 0]], 
      "backward_source_id": -1
    }, 
    {
      "op": "null", 
      "param": {}, 
      "name": "DBstage3_unit26_conv1_weight", 
      "inputs": [], 
      "backward_source_id": -1
    }, 
    {
      "op": "Convolution", 
      "param": {
        "cudnn_off": "False", 
        "cudnn_tune": "limited_workspace", 
        "dilate": "(1,1)", 
        "kernel": "(1,1)", 
        "no_bias": "True", 
        "num_filter": "128", 
        "num_group": "1", 
        "pad": "(0,0)", 
        "stride": "(1,1)", 
        "workspace": "512"
      }, 
      "name": "DBstage3_unit26_conv1", 
      "inputs": [[587, 0], [588, 0]], 
      "backward_source_id": -1
    }, 
    {
      "op": "null", 
      "param": {}, 
      "name": "DBstage3_unit26_bn2_gamma", 
      "inputs": [], 
      "backward_source_id": -1
    }, 
    {
      "op": "null", 
      "param": {}, 
      "name": "DBstage3_unit26_bn2_beta", 
      "inputs": [], 
      "backward_source_id": -1
    }, 
    {
      "op": "BatchNorm", 
      "param": {
        "eps": "2e-05", 
        "fix_gamma": "False", 
        "momentum": "0.9", 
        "use_global_stats": "False"
      }, 
      "name": "DBstage3_unit26_bn2", 
      "inputs": [[589, 0], [590, 0], [591, 0]], 
      "backward_source_id": -1
    }, 
    {
      "op": "Activation", 
      "param": {"act_type": "relu"}, 
      "name": "DBstage3_unit26_relu2", 
      "inputs": [[592, 0]], 
      "backward_source_id": -1
    }, 
    {
      "op": "null", 
      "param": {}, 
      "name": "DBstage3_unit26_conv2_weight", 
      "inputs": [], 
      "backward_source_id": -1
    }, 
    {
      "op": "Convolution", 
      "param": {
        "cudnn_off": "False", 
        "cudnn_tune": "limited_workspace", 
        "dilate": "(1,1)", 
        "kernel": "(3,3)", 
        "no_bias": "True", 
        "num_filter": "32", 
        "num_group": "1", 
        "pad": "(1,1)", 
        "stride": "(1,1)", 
        "workspace": "512"
      }, 
      "name": "DBstage3_unit26_conv2", 
      "inputs": [[593, 0], [594, 0]], 
      "backward_source_id": -1
    }, 
    {
      "op": "Concat", 
      "param": {
        "dim": "1", 
        "num_args": "2"
      }, 
      "name": "DBstage3_concat26", 
      "inputs": [[583, 0], [595, 0]], 
      "backward_source_id": -1
    }, 
    {
      "op": "null", 
      "param": {}, 
      "name": "DBstage3_unit27_bn1_gamma", 
      "inputs": [], 
      "backward_source_id": -1
    }, 
    {
      "op": "null", 
      "param": {}, 
      "name": "DBstage3_unit27_bn1_beta", 
      "inputs": [], 
      "backward_source_id": -1
    }, 
    {
      "op": "BatchNorm", 
      "param": {
        "eps": "2e-05", 
        "fix_gamma": "False", 
        "momentum": "0.9", 
        "use_global_stats": "False"
      }, 
      "name": "DBstage3_unit27_bn1", 
      "inputs": [[596, 0], [597, 0], [598, 0]], 
      "backward_source_id": -1
    }, 
    {
      "op": "Activation", 
      "param": {"act_type": "relu"}, 
      "name": "DBstage3_unit27_relu1", 
      "inputs": [[599, 0]], 
      "backward_source_id": -1
    }, 
    {
      "op": "null", 
      "param": {}, 
      "name": "DBstage3_unit27_conv1_weight", 
      "inputs": [], 
      "backward_source_id": -1
    }, 
    {
      "op": "Convolution", 
      "param": {
        "cudnn_off": "False", 
        "cudnn_tune": "limited_workspace", 
        "dilate": "(1,1)", 
        "kernel": "(1,1)", 
        "no_bias": "True", 
        "num_filter": "128", 
        "num_group": "1", 
        "pad": "(0,0)", 
        "stride": "(1,1)", 
        "workspace": "512"
      }, 
      "name": "DBstage3_unit27_conv1", 
      "inputs": [[600, 0], [601, 0]], 
      "backward_source_id": -1
    }, 
    {
      "op": "null", 
      "param": {}, 
      "name": "DBstage3_unit27_bn2_gamma", 
      "inputs": [], 
      "backward_source_id": -1
    }, 
    {
      "op": "null", 
      "param": {}, 
      "name": "DBstage3_unit27_bn2_beta", 
      "inputs": [], 
      "backward_source_id": -1
    }, 
    {
      "op": "BatchNorm", 
      "param": {
        "eps": "2e-05", 
        "fix_gamma": "False", 
        "momentum": "0.9", 
        "use_global_stats": "False"
      }, 
      "name": "DBstage3_unit27_bn2", 
      "inputs": [[602, 0], [603, 0], [604, 0]], 
      "backward_source_id": -1
    }, 
    {
      "op": "Activation", 
      "param": {"act_type": "relu"}, 
      "name": "DBstage3_unit27_relu2", 
      "inputs": [[605, 0]], 
      "backward_source_id": -1
    }, 
    {
      "op": "null", 
      "param": {}, 
      "name": "DBstage3_unit27_conv2_weight", 
      "inputs": [], 
      "backward_source_id": -1
    }, 
    {
      "op": "Convolution", 
      "param": {
        "cudnn_off": "False", 
        "cudnn_tune": "limited_workspace", 
        "dilate": "(1,1)", 
        "kernel": "(3,3)", 
        "no_bias": "True", 
        "num_filter": "32", 
        "num_group": "1", 
        "pad": "(1,1)", 
        "stride": "(1,1)", 
        "workspace": "512"
      }, 
      "name": "DBstage3_unit27_conv2", 
      "inputs": [[606, 0], [607, 0]], 
      "backward_source_id": -1
    }, 
    {
      "op": "Concat", 
      "param": {
        "dim": "1", 
        "num_args": "2"
      }, 
      "name": "DBstage3_concat27", 
      "inputs": [[596, 0], [608, 0]], 
      "backward_source_id": -1
    }, 
    {
      "op": "null", 
      "param": {}, 
      "name": "DBstage3_unit28_bn1_gamma", 
      "inputs": [], 
      "backward_source_id": -1
    }, 
    {
      "op": "null", 
      "param": {}, 
      "name": "DBstage3_unit28_bn1_beta", 
      "inputs": [], 
      "backward_source_id": -1
    }, 
    {
      "op": "BatchNorm", 
      "param": {
        "eps": "2e-05", 
        "fix_gamma": "False", 
        "momentum": "0.9", 
        "use_global_stats": "False"
      }, 
      "name": "DBstage3_unit28_bn1", 
      "inputs": [[609, 0], [610, 0], [611, 0]], 
      "backward_source_id": -1
    }, 
    {
      "op": "Activation", 
      "param": {"act_type": "relu"}, 
      "name": "DBstage3_unit28_relu1", 
      "inputs": [[612, 0]], 
      "backward_source_id": -1
    }, 
    {
      "op": "null", 
      "param": {}, 
      "name": "DBstage3_unit28_conv1_weight", 
      "inputs": [], 
      "backward_source_id": -1
    }, 
    {
      "op": "Convolution", 
      "param": {
        "cudnn_off": "False", 
        "cudnn_tune": "limited_workspace", 
        "dilate": "(1,1)", 
        "kernel": "(1,1)", 
        "no_bias": "True", 
        "num_filter": "128", 
        "num_group": "1", 
        "pad": "(0,0)", 
        "stride": "(1,1)", 
        "workspace": "512"
      }, 
      "name": "DBstage3_unit28_conv1", 
      "inputs": [[613, 0], [614, 0]], 
      "backward_source_id": -1
    }, 
    {
      "op": "null", 
      "param": {}, 
      "name": "DBstage3_unit28_bn2_gamma", 
      "inputs": [], 
      "backward_source_id": -1
    }, 
    {
      "op": "null", 
      "param": {}, 
      "name": "DBstage3_unit28_bn2_beta", 
      "inputs": [], 
      "backward_source_id": -1
    }, 
    {
      "op": "BatchNorm", 
      "param": {
        "eps": "2e-05", 
        "fix_gamma": "False", 
        "momentum": "0.9", 
        "use_global_stats": "False"
      }, 
      "name": "DBstage3_unit28_bn2", 
      "inputs": [[615, 0], [616, 0], [617, 0]], 
      "backward_source_id": -1
    }, 
    {
      "op": "Activation", 
      "param": {"act_type": "relu"}, 
      "name": "DBstage3_unit28_relu2", 
      "inputs": [[618, 0]], 
      "backward_source_id": -1
    }, 
    {
      "op": "null", 
      "param": {}, 
      "name": "DBstage3_unit28_conv2_weight", 
      "inputs": [], 
      "backward_source_id": -1
    }, 
    {
      "op": "Convolution", 
      "param": {
        "cudnn_off": "False", 
        "cudnn_tune": "limited_workspace", 
        "dilate": "(1,1)", 
        "kernel": "(3,3)", 
        "no_bias": "True", 
        "num_filter": "32", 
        "num_group": "1", 
        "pad": "(1,1)", 
        "stride": "(1,1)", 
        "workspace": "512"
      }, 
      "name": "DBstage3_unit28_conv2", 
      "inputs": [[619, 0], [620, 0]], 
      "backward_source_id": -1
    }, 
    {
      "op": "Concat", 
      "param": {
        "dim": "1", 
        "num_args": "2"
      }, 
      "name": "DBstage3_concat28", 
      "inputs": [[609, 0], [621, 0]], 
      "backward_source_id": -1
    }, 
    {
      "op": "null", 
      "param": {}, 
      "name": "DBstage3_unit29_bn1_gamma", 
      "inputs": [], 
      "backward_source_id": -1
    }, 
    {
      "op": "null", 
      "param": {}, 
      "name": "DBstage3_unit29_bn1_beta", 
      "inputs": [], 
      "backward_source_id": -1
    }, 
    {
      "op": "BatchNorm", 
      "param": {
        "eps": "2e-05", 
        "fix_gamma": "False", 
        "momentum": "0.9", 
        "use_global_stats": "False"
      }, 
      "name": "DBstage3_unit29_bn1", 
      "inputs": [[622, 0], [623, 0], [624, 0]], 
      "backward_source_id": -1
    }, 
    {
      "op": "Activation", 
      "param": {"act_type": "relu"}, 
      "name": "DBstage3_unit29_relu1", 
      "inputs": [[625, 0]], 
      "backward_source_id": -1
    }, 
    {
      "op": "null", 
      "param": {}, 
      "name": "DBstage3_unit29_conv1_weight", 
      "inputs": [], 
      "backward_source_id": -1
    }, 
    {
      "op": "Convolution", 
      "param": {
        "cudnn_off": "False", 
        "cudnn_tune": "limited_workspace", 
        "dilate": "(1,1)", 
        "kernel": "(1,1)", 
        "no_bias": "True", 
        "num_filter": "128", 
        "num_group": "1", 
        "pad": "(0,0)", 
        "stride": "(1,1)", 
        "workspace": "512"
      }, 
      "name": "DBstage3_unit29_conv1", 
      "inputs": [[626, 0], [627, 0]], 
      "backward_source_id": -1
    }, 
    {
      "op": "null", 
      "param": {}, 
      "name": "DBstage3_unit29_bn2_gamma", 
      "inputs": [], 
      "backward_source_id": -1
    }, 
    {
      "op": "null", 
      "param": {}, 
      "name": "DBstage3_unit29_bn2_beta", 
      "inputs": [], 
      "backward_source_id": -1
    }, 
    {
      "op": "BatchNorm", 
      "param": {
        "eps": "2e-05", 
        "fix_gamma": "False", 
        "momentum": "0.9", 
        "use_global_stats": "False"
      }, 
      "name": "DBstage3_unit29_bn2", 
      "inputs": [[628, 0], [629, 0], [630, 0]], 
      "backward_source_id": -1
    }, 
    {
      "op": "Activation", 
      "param": {"act_type": "relu"}, 
      "name": "DBstage3_unit29_relu2", 
      "inputs": [[631, 0]], 
      "backward_source_id": -1
    }, 
    {
      "op": "null", 
      "param": {}, 
      "name": "DBstage3_unit29_conv2_weight", 
      "inputs": [], 
      "backward_source_id": -1
    }, 
    {
      "op": "Convolution", 
      "param": {
        "cudnn_off": "False", 
        "cudnn_tune": "limited_workspace", 
        "dilate": "(1,1)", 
        "kernel": "(3,3)", 
        "no_bias": "True", 
        "num_filter": "32", 
        "num_group": "1", 
        "pad": "(1,1)", 
        "stride": "(1,1)", 
        "workspace": "512"
      }, 
      "name": "DBstage3_unit29_conv2", 
      "inputs": [[632, 0], [633, 0]], 
      "backward_source_id": -1
    }, 
    {
      "op": "Concat", 
      "param": {
        "dim": "1", 
        "num_args": "2"
      }, 
      "name": "DBstage3_concat29", 
      "inputs": [[622, 0], [634, 0]], 
      "backward_source_id": -1
    }, 
    {
      "op": "null", 
      "param": {}, 
      "name": "DBstage3_unit30_bn1_gamma", 
      "inputs": [], 
      "backward_source_id": -1
    }, 
    {
      "op": "null", 
      "param": {}, 
      "name": "DBstage3_unit30_bn1_beta", 
      "inputs": [], 
      "backward_source_id": -1
    }, 
    {
      "op": "BatchNorm", 
      "param": {
        "eps": "2e-05", 
        "fix_gamma": "False", 
        "momentum": "0.9", 
        "use_global_stats": "False"
      }, 
      "name": "DBstage3_unit30_bn1", 
      "inputs": [[635, 0], [636, 0], [637, 0]], 
      "backward_source_id": -1
    }, 
    {
      "op": "Activation", 
      "param": {"act_type": "relu"}, 
      "name": "DBstage3_unit30_relu1", 
      "inputs": [[638, 0]], 
      "backward_source_id": -1
    }, 
    {
      "op": "null", 
      "param": {}, 
      "name": "DBstage3_unit30_conv1_weight", 
      "inputs": [], 
      "backward_source_id": -1
    }, 
    {
      "op": "Convolution", 
      "param": {
        "cudnn_off": "False", 
        "cudnn_tune": "limited_workspace", 
        "dilate": "(1,1)", 
        "kernel": "(1,1)", 
        "no_bias": "True", 
        "num_filter": "128", 
        "num_group": "1", 
        "pad": "(0,0)", 
        "stride": "(1,1)", 
        "workspace": "512"
      }, 
      "name": "DBstage3_unit30_conv1", 
      "inputs": [[639, 0], [640, 0]], 
      "backward_source_id": -1
    }, 
    {
      "op": "null", 
      "param": {}, 
      "name": "DBstage3_unit30_bn2_gamma", 
      "inputs": [], 
      "backward_source_id": -1
    }, 
    {
      "op": "null", 
      "param": {}, 
      "name": "DBstage3_unit30_bn2_beta", 
…
      "inputs": [], 
      "backward_source_id": -1
    }, 
    {
      "op": "null", 
      "param": {}, 
      "name": "DBstage4_unit19_bn1_beta", 
      "inputs": [], 
      "backward_source_id": -1
    }, 
    {
      "op": "BatchNorm", 
      "param": {
        "eps": "2e-05", 
        "fix_gamma": "False", 
        "momentum": "0.9", 
        "use_global_stats": "False"
      }, 
      "name": "DBstage4_unit19_bn1", 
      "inputs": [[915, 0], [916, 0], [917, 0]], 
      "backward_source_id": -1
    }, 
    {
      "op": "Activation", 
      "param": {"act_type": "relu"}, 
      "name": "DBstage4_unit19_relu1", 
      "inputs": [[918, 0]], 
      "backward_source_id": -1
    }, 
    {
      "op": "null", 
      "param": {}, 
      "name": "DBstage4_unit19_conv1_weight", 
      "inputs": [], 
      "backward_source_id": -1
    }, 
    {
      "op": "Convolution", 
      "param": {
        "cudnn_off": "False", 
        "cudnn_tune": "limited_workspace", 
        "dilate": "(1,1)", 
        "kernel": "(1,1)", 
        "no_bias": "True", 
        "num_filter": "128", 
        "num_group": "1", 
        "pad": "(0,0)", 
        "stride": "(1,1)", 
        "workspace": "512"
      }, 
      "name": "DBstage4_unit19_conv1", 
      "inputs": [[919, 0], [920, 0]], 
      "backward_source_id": -1
    }, 
    {
      "op": "null", 
      "param": {}, 
      "name": "DBstage4_unit19_bn2_gamma", 
      "inputs": [], 
      "backward_source_id": -1
    }, 
    {
      "op": "null", 
      "param": {}, 
      "name": "DBstage4_unit19_bn2_beta", 
      "inputs": [], 
      "backward_source_id": -1
    }, 
    {
      "op": "BatchNorm", 
      "param": {
        "eps": "2e-05", 
        "fix_gamma": "False", 
        "momentum": "0.9", 
        "use_global_stats": "False"
      }, 
      "name": "DBstage4_unit19_bn2", 
      "inputs": [[921, 0], [922, 0], [923, 0]], 
      "backward_source_id": -1
    }, 
    {
      "op": "Activation", 
      "param": {"act_type": "relu"}, 
      "name": "DBstage4_unit19_relu2", 
      "inputs": [[924, 0]], 
      "backward_source_id": -1
    }, 
    {
      "op": "null", 
      "param": {}, 
      "name": "DBstage4_unit19_conv2_weight", 
      "inputs": [], 
      "backward_source_id": -1
    }, 
    {
      "op": "Convolution", 
      "param": {
        "cudnn_off": "False", 
        "cudnn_tune": "limited_workspace", 
        "dilate": "(1,1)", 
        "kernel": "(3,3)", 
        "no_bias": "True", 
        "num_filter": "32", 
        "num_group": "1", 
        "pad": "(1,1)", 
        "stride": "(1,1)", 
        "workspace": "512"
      }, 
      "name": "DBstage4_unit19_conv2", 
      "inputs": [[925, 0], [926, 0]], 
      "backward_source_id": -1
    }, 
    {
      "op": "Concat", 
      "param": {
        "dim": "1", 
        "num_args": "2"
      }, 
      "name": "DBstage4_concat19", 
      "inputs": [[915, 0], [927, 0]], 
      "backward_source_id": -1
    }, 
    {
      "op": "null", 
      "param": {}, 
      "name": "DBstage4_unit20_bn1_gamma", 
      "inputs": [], 
      "backward_source_id": -1
    }, 
    {
      "op": "null", 
      "param": {}, 
      "name": "DBstage4_unit20_bn1_beta", 
      "inputs": [], 
      "backward_source_id": -1
    }, 
    {
      "op": "BatchNorm", 
      "param": {
        "eps": "2e-05", 
        "fix_gamma": "False", 
        "momentum": "0.9", 
        "use_global_stats": "False"
      }, 
      "name": "DBstage4_unit20_bn1", 
      "inputs": [[928, 0], [929, 0], [930, 0]], 
      "backward_source_id": -1
    }, 
    {
      "op": "Activation", 
      "param": {"act_type": "relu"}, 
      "name": "DBstage4_unit20_relu1", 
      "inputs": [[931, 0]], 
      "backward_source_id": -1
    }, 
    {
      "op": "null", 
      "param": {}, 
      "name": "DBstage4_unit20_conv1_weight", 
      "inputs": [], 
      "backward_source_id": -1
    }, 
    {
      "op": "Convolution", 
      "param": {
        "cudnn_off": "False", 
        "cudnn_tune": "limited_workspace", 
        "dilate": "(1,1)", 
        "kernel": "(1,1)", 
        "no_bias": "True", 
        "num_filter": "128", 
        "num_group": "1", 
        "pad": "(0,0)", 
        "stride": "(1,1)", 
        "workspace": "512"
      }, 
      "name": "DBstage4_unit20_conv1", 
      "inputs": [[932, 0], [933, 0]], 
      "backward_source_id": -1
    }, 
    {
      "op": "null", 
      "param": {}, 
      "name": "DBstage4_unit20_bn2_gamma", 
      "inputs": [], 
      "backward_source_id": -1
    }, 
    {
      "op": "null", 
      "param": {}, 
      "name": "DBstage4_unit20_bn2_beta", 
      "inputs": [], 
      "backward_source_id": -1
    }, 
    {
      "op": "BatchNorm", 
      "param": {
        "eps": "2e-05", 
        "fix_gamma": "False", 
        "momentum": "0.9", 
        "use_global_stats": "False"
      }, 
      "name": "DBstage4_unit20_bn2", 
      "inputs": [[934, 0], [935, 0], [936, 0]], 
      "backward_source_id": -1
    }, 
    {
      "op": "Activation", 
      "param": {"act_type": "relu"}, 
      "name": "DBstage4_unit20_relu2", 
      "inputs": [[937, 0]], 
      "backward_source_id": -1
    }, 
    {
      "op": "null", 
      "param": {}, 
      "name": "DBstage4_unit20_conv2_weight", 
      "inputs": [], 
      "backward_source_id": -1
    }, 
    {
      "op": "Convolution", 
      "param": {
        "cudnn_off": "False", 
        "cudnn_tune": "limited_workspace", 
        "dilate": "(1,1)", 
        "kernel": "(3,3)", 
        "no_bias": "True", 
        "num_filter": "32", 
        "num_group": "1", 
        "pad": "(1,1)", 
        "stride": "(1,1)", 
        "workspace": "512"
      }, 
      "name": "DBstage4_unit20_conv2", 
      "inputs": [[938, 0], [939, 0]], 
      "backward_source_id": -1
    }, 
    {
      "op": "Concat", 
      "param": {
        "dim": "1", 
        "num_args": "2"
      }, 
      "name": "DBstage4_concat20", 
      "inputs": [[928, 0], [940, 0]], 
      "backward_source_id": -1
    }, 
    {
      "op": "null", 
      "param": {}, 
      "name": "DBstage4_unit21_bn1_gamma", 
      "inputs": [], 
      "backward_source_id": -1
    }, 
    {
      "op": "null", 
      "param": {}, 
      "name": "DBstage4_unit21_bn1_beta", 
      "inputs": [], 
      "backward_source_id": -1
    }, 
    {
      "op": "BatchNorm", 
      "param": {
        "eps": "2e-05", 
        "fix_gamma": "False", 
        "momentum": "0.9", 
        "use_global_stats": "False"
      }, 
      "name": "DBstage4_unit21_bn1", 
      "inputs": [[941, 0], [942, 0], [943, 0]], 
      "backward_source_id": -1
    }, 
    {
      "op": "Activation", 
      "param": {"act_type": "relu"}, 
      "name": "DBstage4_unit21_relu1", 
      "inputs": [[944, 0]], 
      "backward_source_id": -1
    }, 
    {
      "op": "null", 
      "param": {}, 
      "name": "DBstage4_unit21_conv1_weight", 
      "inputs": [], 
      "backward_source_id": -1
    }, 
    {
      "op": "Convolution", 
      "param": {
        "cudnn_off": "False", 
        "cudnn_tune": "limited_workspace", 
        "dilate": "(1,1)", 
        "kernel": "(1,1)", 
        "no_bias": "True", 
        "num_filter": "128", 
        "num_group": "1", 
        "pad": "(0,0)", 
        "stride": "(1,1)", 
        "workspace": "512"
      }, 
      "name": "DBstage4_unit21_conv1", 
      "inputs": [[945, 0], [946, 0]], 
      "backward_source_id": -1
    }, 
    {
      "op": "null", 
      "param": {}, 
      "name": "DBstage4_unit21_bn2_gamma", 
      "inputs": [], 
      "backward_source_id": -1
    }, 
    {
      "op": "null", 
      "param": {}, 
      "name": "DBstage4_unit21_bn2_beta", 
      "inputs": [], 
      "backward_source_id": -1
    }, 
    {
      "op": "BatchNorm", 
      "param": {
        "eps": "2e-05", 
        "fix_gamma": "False", 
        "momentum": "0.9", 
        "use_global_stats": "False"
      }, 
      "name": "DBstage4_unit21_bn2", 
      "inputs": [[947, 0], [948, 0], [949, 0]], 
      "backward_source_id": -1
    }, 
    {
      "op": "Activation", 
      "param": {"act_type": "relu"}, 
      "name": "DBstage4_unit21_relu2", 
      "inputs": [[950, 0]], 
      "backward_source_id": -1
    }, 
    {
      "op": "null", 
      "param": {}, 
      "name": "DBstage4_unit21_conv2_weight", 
      "inputs": [], 
      "backward_source_id": -1
    }, 
    {
      "op": "Convolution", 
      "param": {
        "cudnn_off": "False", 
        "cudnn_tune": "limited_workspace", 
        "dilate": "(1,1)", 
        "kernel": "(3,3)", 
        "no_bias": "True", 
        "num_filter": "32", 
        "num_group": "1", 
        "pad": "(1,1)", 
        "stride": "(1,1)", 
        "workspace": "512"
      }, 
      "name": "DBstage4_unit21_conv2", 
      "inputs": [[951, 0], [952, 0]], 
      "backward_source_id": -1
    }, 
    {
      "op": "Concat", 
      "param": {
        "dim": "1", 
        "num_args": "2"
      }, 
      "name": "DBstage4_concat21", 
      "inputs": [[941, 0], [953, 0]], 
      "backward_source_id": -1
    }, 
    {
      "op": "null", 
      "param": {}, 
      "name": "DBstage4_unit22_bn1_gamma", 
      "inputs": [], 
      "backward_source_id": -1
    }, 
    {
      "op": "null", 
      "param": {}, 
      "name": "DBstage4_unit22_bn1_beta", 
      "inputs": [], 
      "backward_source_id": -1
    }, 
    {
      "op": "BatchNorm", 
      "param": {
        "eps": "2e-05", 
        "fix_gamma": "False", 
        "momentum": "0.9", 
        "use_global_stats": "False"
      }, 
      "name": "DBstage4_unit22_bn1", 
      "inputs": [[954, 0], [955, 0], [956, 0]], 
      "backward_source_id": -1
    }, 
    {
      "op": "Activation", 
      "param": {"act_type": "relu"}, 
      "name": "DBstage4_unit22_relu1", 
      "inputs": [[957, 0]], 
      "backward_source_id": -1
    }, 
    {
      "op": "null", 
      "param": {}, 
      "name": "DBstage4_unit22_conv1_weight", 
      "inputs": [], 
      "backward_source_id": -1
    }, 
    {
      "op": "Convolution", 
      "param": {
        "cudnn_off": "False", 
        "cudnn_tune": "limited_workspace", 
        "dilate": "(1,1)", 
        "kernel": "(1,1)", 
        "no_bias": "True", 
        "num_filter": "128", 
        "num_group": "1", 
        "pad": "(0,0)", 
        "stride": "(1,1)", 
        "workspace": "512"
      }, 
      "name": "DBstage4_unit22_conv1", 
      "inputs": [[958, 0], [959, 0]], 
      "backward_source_id": -1
    }, 
    {
      "op": "null", 
      "param": {}, 
      "name": "DBstage4_unit22_bn2_gamma", 
      "inputs": [], 
      "backward_source_id": -1
    }, 
    {
      "op": "null", 
      "param": {}, 
      "name": "DBstage4_unit22_bn2_beta", 
      "inputs": [], 
      "backward_source_id": -1
    }, 
    {
      "op": "BatchNorm", 
      "param": {
        "eps": "2e-05", 
        "fix_gamma": "False", 
        "momentum": "0.9", 
        "use_global_stats": "False"
      }, 
      "name": "DBstage4_unit22_bn2", 
      "inputs": [[960, 0], [961, 0], [962, 0]], 
      "backward_source_id": -1
    }, 
    {
      "op": "Activation", 
      "param": {"act_type": "relu"}, 
      "name": "DBstage4_unit22_relu2", 
      "inputs": [[963, 0]], 
      "backward_source_id": -1
    }, 
    {
      "op": "null", 
      "param": {}, 
      "name": "DBstage4_unit22_conv2_weight", 
      "inputs": [], 
      "backward_source_id": -1
    }, 
    {
      "op": "Convolution", 
      "param": {
        "cudnn_off": "False", 
        "cudnn_tune": "limited_workspace", 
        "dilate": "(1,1)", 
        "kernel": "(3,3)", 
        "no_bias": "True", 
        "num_filter": "32", 
        "num_group": "1", 
        "pad": "(1,1)", 
        "stride": "(1,1)", 
        "workspace": "512"
      }, 
      "name": "DBstage4_unit22_conv2", 
      "inputs": [[964, 0], [965, 0]], 
      "backward_source_id": -1
    }, 
    {
      "op": "Concat", 
      "param": {
        "dim": "1", 
        "num_args": "2"
      }, 
      "name": "DBstage4_concat22", 
      "inputs": [[954, 0], [966, 0]], 
      "backward_source_id": -1
    }, 
    {
      "op": "null", 
      "param": {}, 
      "name": "DBstage4_unit23_bn1_gamma", 
      "inputs": [], 
      "backward_source_id": -1
    }, 
    {
      "op": "null", 
      "param": {}, 
      "name": "DBstage4_unit23_bn1_beta", 
      "inputs": [], 
      "backward_source_id": -1
    }, 
    {
      "op": "BatchNorm", 
      "param": {
        "eps": "2e-05", 
        "fix_gamma": "False", 
        "momentum": "0.9", 
        "use_global_stats": "False"
      }, 
      "name": "DBstage4_unit23_bn1", 
      "inputs": [[967, 0], [968, 0], [969, 0]], 
      "backward_source_id": -1
    }, 
    {
      "op": "Activation", 
      "param": {"act_type": "relu"}, 
      "name": "DBstage4_unit23_relu1", 
      "inputs": [[970, 0]], 
      "backward_source_id": -1
    }, 
    {
      "op": "null", 
      "param": {}, 
      "name": "DBstage4_unit23_conv1_weight", 
      "inputs": [], 
      "backward_source_id": -1
    }, 
    {
      "op": "Convolution", 
      "param": {
        "cudnn_off": "False", 
        "cudnn_tune": "limited_workspace", 
        "dilate": "(1,1)", 
        "kernel": "(1,1)", 
        "no_bias": "True", 
        "num_filter": "128", 
        "num_group": "1", 
        "pad": "(0,0)", 
        "stride": "(1,1)", 
        "workspace": "512"
      }, 
      "name": "DBstage4_unit23_conv1", 
      "inputs": [[971, 0], [972, 0]], 
      "backward_source_id": -1
    }, 
    {
      "op": "null", 
      "param": {}, 
      "name": "DBstage4_unit23_bn2_gamma", 
      "inputs": [], 
      "backward_source_id": -1
    }, 
    {
      "op": "null", 
      "param": {}, 
      "name": "DBstage4_unit23_bn2_beta", 
      "inputs": [], 
      "backward_source_id": -1
    }, 
    {
      "op": "BatchNorm", 
      "param": {
        "eps": "2e-05", 
        "fix_gamma": "False", 
        "momentum": "0.9", 
        "use_global_stats": "False"
      }, 
      "name": "DBstage4_unit23_bn2", 
      "inputs": [[973, 0], [974, 0], [975, 0]], 
      "backward_source_id": -1
    }, 
    {
      "op": "Activation", 
      "param": {"act_type": "relu"}, 
      "name": "DBstage4_unit23_relu2", 
      "inputs": [[976, 0]], 
      "backward_source_id": -1
    }, 
    {
      "op": "null", 
      "param": {}, 
      "name": "DBstage4_unit23_conv2_weight", 
      "inputs": [], 
      "backward_source_id": -1
    }, 
    {
      "op": "Convolution", 
      "param": {
        "cudnn_off": "False", 
        "cudnn_tune": "limited_workspace", 
        "dilate": "(1,1)", 
        "kernel": "(3,3)", 
        "no_bias": "True", 
        "num_filter": "32", 
        "num_group": "1", 
        "pad": "(1,1)", 
        "stride": "(1,1)", 
        "workspace": "512"
      }, 
      "name": "DBstage4_unit23_conv2", 
      "inputs": [[977, 0], [978, 0]], 
      "backward_source_id": -1
    }, 
    {
      "op": "Concat", 
      "param": {
        "dim": "1", 
        "num_args": "2"
      }, 
      "name": "DBstage4_concat23", 
      "inputs": [[967, 0], [979, 0]], 
      "backward_source_id": -1
    }, 
    {
      "op": "null", 
      "param": {}, 
      "name": "DBstage4_unit24_bn1_gamma", 
      "inputs": [], 
      "backward_source_id": -1
    }, 
    {
      "op": "null", 
      "param": {}, 
      "name": "DBstage4_unit24_bn1_beta", 
      "inputs": [], 
      "backward_source_id": -1
    }, 
    {
      "op": "BatchNorm", 
      "param": {
        "eps": "2e-05", 
        "fix_gamma": "False", 
        "momentum": "0.9", 
        "use_global_stats": "False"
      }, 
      "name": "DBstage4_unit24_bn1", 
      "inputs": [[980, 0], [981, 0], [982, 0]], 
      "backward_source_id": -1
    }, 
    {
      "op": "Activation", 
      "param": {"act_type": "relu"}, 
      "name": "DBstage4_unit24_relu1", 
      "inputs": [[983, 0]], 
      "backward_source_id": -1
    }, 
    {
      "op": "null", 
      "param": {}, 
      "name": "DBstage4_unit24_conv1_weight", 
      "inputs": [], 
      "backward_source_id": -1
    }, 
    {
      "op": "Convolution", 
      "param": {
        "cudnn_off": "False", 
        "cudnn_tune": "limited_workspace", 
        "dilate": "(1,1)", 
        "kernel": "(1,1)", 
        "no_bias": "True", 
        "num_filter": "128", 
        "num_group": "1", 
        "pad": "(0,0)", 
        "stride": "(1,1)", 
        "workspace": "512"
      }, 
      "name": "DBstage4_unit24_conv1", 
      "inputs": [[984, 0], [985, 0]], 
      "backward_source_id": -1
    }, 
    {
      "op": "null", 
      "param": {}, 
      "name": "DBstage4_unit24_bn2_gamma", 
      "inputs": [], 
      "backward_source_id": -1
    }, 
    {
      "op": "null", 
      "param": {}, 
      "name": "DBstage4_unit24_bn2_beta", 
      "inputs": [], 
      "backward_source_id": -1
    }, 
    {
      "op": "BatchNorm", 
      "param": {
        "eps": "2e-05", 
        "fix_gamma": "False", 
        "momentum": "0.9", 
        "use_global_stats": "False"
      }, 
      "name": "DBstage4_unit24_bn2", 
      "inputs": [[986, 0], [987, 0], [988, 0]], 
      "backward_source_id": -1
    }, 
    {
      "op": "Activation", 
      "param": {"act_type": "relu"}, 
      "name": "DBstage4_unit24_relu2", 
      "inputs": [[989, 0]], 
      "backward_source_id": -1
    }, 
    {
      "op": "null", 
      "param": {}, 
      "name": "DBstage4_unit24_conv2_weight", 
      "inputs": [], 
      "backward_source_id": -1
    }, 
    {
      "op": "Convolution", 
      "param": {
        "cudnn_off": "False", 
        "cudnn_tune": "limited_workspace", 
        "dilate": "(1,1)", 
        "kernel": "(3,3)", 
        "no_bias": "True", 
        "num_filter": "32", 
        "num_group": "1", 
        "pad": "(1,1)", 
        "stride": "(1,1)", 
        "workspace": "512"
      }, 
      "name": "DBstage4_unit24_conv2", 
      "inputs": [[990, 0], [991, 0]], 
      "backward_source_id": -1
    }, 
    {
      "op": "Concat", 
      "param": {
        "dim": "1", 
        "num_args": "2"
      }, 
      "name": "DBstage4_concat24", 
      "inputs": [[980, 0], [992, 0]], 
      "backward_source_id": -1
    }, 
    {
      "op": "null", 
      "param": {}, 
      "name": "DBstage4_unit25_bn1_gamma", 
      "inputs": [], 
      "backward_source_id": -1
    }, 
    {
      "op": "null", 
      "param": {}, 
      "name": "DBstage4_unit25_bn1_beta", 
      "inputs": [], 
      "backward_source_id": -1
    }, 
    {
      "op": "BatchNorm", 
      "param": {
        "eps": "2e-05", 
        "fix_gamma": "False", 
        "momentum": "0.9", 
        "use_global_stats": "False"
      }, 
      "name": "DBstage4_unit25_bn1", 
      "inputs": [[993, 0], [994, 0], [995, 0]], 
      "backward_source_id": -1
    }, 
    {
      "op": "Activation", 
      "param": {"act_type": "relu"}, 
      "name": "DBstage4_unit25_relu1", 
      "inputs": [[996, 0]], 
      "backward_source_id": -1
    }, 
    {
      "op": "null", 
      "param": {}, 
      "name": "DBstage4_unit25_conv1_weight", 
      "inputs": [], 
      "backward_source_id": -1
    }, 
    {
      "op": "Convolution", 
      "param": {
        "cudnn_off": "False", 
        "cudnn_tune": "limited_workspace", 
        "dilate": "(1,1)", 
        "kernel": "(1,1)", 
        "no_bias": "True", 
        "num_filter": "128", 
        "num_group": "1", 
        "pad": "(0,0)", 
        "stride": "(1,1)", 
        "workspace": "512"
      }, 
      "name": "DBstage4_unit25_conv1", 
      "inputs": [[997, 0], [998, 0]], 
      "backward_source_id": -1
    }, 
    {
      "op": "null", 
      "param": {}, 
      "name": "DBstage4_unit25_bn2_gamma", 
      "inputs": [], 
      "backward_source_id": -1
    }, 
    {
      "op": "null", 
      "param": {}, 
      "name": "DBstage4_unit25_bn2_beta", 
      "inputs": [], 
      "backward_source_id": -1
    }, 
    {
      "op": "BatchNorm", 
      "param": {
        "eps": "2e-05", 
        "fix_gamma": "False", 
        "momentum": "0.9", 
        "use_global_stats": "False"
      }, 
      "name": "DBstage4_unit25_bn2", 
      "inputs": [[999, 0], [1000, 0], [1001, 0]], 
      "backward_source_id": -1
    }, 
    {
      "op": "Activation", 
      "param": {"act_type": "relu"}, 
      "name": "DBstage4_unit25_relu2", 
      "inputs": [[1002, 0]], 
      "backward_source_id": -1
    }, 
    {
      "op": "null", 
      "param": {}, 
      "name": "DBstage4_unit25_conv2_weight", 
      "inputs": [], 
      "backward_source_id": -1
    }, 
    {
      "op": "Convolution", 
      "param": {
        "cudnn_off": "False", 
        "cudnn_tune": "limited_workspace", 
        "dilate": "(1,1)", 
        "kernel": "(3,3)", 
        "no_bias": "True", 
        "num_filter": "32", 
        "num_group": "1", 
        "pad": "(1,1)", 
        "stride": "(1,1)", 
        "workspace": "512"
      }, 
      "name": "DBstage4_unit25_conv2", 
      "inputs": [[1003, 0], [1004, 0]], 
      "backward_source_id": -1
    }, 
    {
      "op": "Concat", 
      "param": {
        "dim": "1", 
        "num_args": "2"
      }, 
      "name": "DBstage4_concat25", 
      "inputs": [[993, 0], [1005, 0]], 
      "backward_source_id": -1
    }, 
    {
      "op": "null", 
      "param": {}, 
      "name": "DBstage4_unit26_bn1_gamma", 
      "inputs": [], 
      "backward_source_id": -1
    }, 
    {
      "op": "null", 
      "param": {}, 
      "name": "DBstage4_unit26_bn1_beta", 
      "inputs": [], 
      "backward_source_id": -1
    }, 
    {
      "op": "BatchNorm", 
      "param": {
        "eps": "2e-05", 
        "fix_gamma": "False", 
        "momentum": "0.9", 
        "use_global_stats": "False"
      }, 
      "name": "DBstage4_unit26_bn1", 
      "inputs": [[1006, 0], [1007, 0], [1008, 0]], 
      "backward_source_id": -1
    }, 
    {
      "op": "Activation", 
      "param": {"act_type": "relu"}, 
      "name": "DBstage4_unit26_relu1", 
      "inputs": [[1009, 0]], 
      "backward_source_id": -1
    }, 
    {
      "op": "null", 
      "param": {}, 
      "name": "DBstage4_unit26_conv1_weight", 
      "inputs": [], 
      "backward_source_id": -1
    }, 
    {
      "op": "Convolution", 
      "param": {
        "cudnn_off": "False", 
        "cudnn_tune": "limited_workspace", 
        "dilate": "(1,1)", 
        "kernel": "(1,1)", 
        "no_bias": "True", 
        "num_filter": "128", 
        "num_group": "1", 
        "pad": "(0,0)", 
        "stride": "(1,1)", 
        "workspace": "512"
      }, 
      "name": "DBstage4_unit26_conv1", 
      "inputs": [[1010, 0], [1011, 0]], 
      "backward_source_id": -1
    }, 
    {
      "op": "null", 
      "param": {}, 
      "name": "DBstage4_unit26_bn2_gamma", 
      "inputs": [], 
      "backward_source_id": -1
    }, 
    {
      "op": "null", 
      "param": {}, 
      "name": "DBstage4_unit26_bn2_beta", 
      "inputs": [], 
      "backward_source_id": -1
    }, 
    {
      "op": "BatchNorm", 
      "param": {
        "eps": "2e-05", 
        "fix_gamma": "False", 
        "momentum": "0.9", 
        "use_global_stats": "False"
      }, 
      "name": "DBstage4_unit26_bn2", 
      "inputs": [[1012, 0], [1013, 0], [1014, 0]], 
      "backward_source_id": -1
    }, 
    {
      "op": "Activation", 
      "param": {"act_type": "relu"}, 
      "name": "DBstage4_unit26_relu2", 
      "inputs": [[1015, 0]], 
      "backward_source_id": -1
    }, 
    {
      "op": "null", 
      "param": {}, 
      "name": "DBstage4_unit26_conv2_weight", 
      "inputs": [], 
      "backward_source_id": -1
    }, 
    {
      "op": "Convolution", 
      "param": {
        "cudnn_off": "False", 
        "cudnn_tune": "limited_workspace", 
        "dilate": "(1,1)", 
        "kernel": "(3,3)", 
        "no_bias": "True", 
        "num_filter": "32", 
        "num_group": "1", 
        "pad": "(1,1)", 
        "stride": "(1,1)", 
        "workspace": "512"
      }, 
      "name": "DBstage4_unit26_conv2", 
      "inputs": [[1016, 0], [1017, 0]], 
      "backward_source_id": -1
    }, 
    {
      "op": "Concat", 
      "param": {
        "dim": "1", 
        "num_args": "2"
      }, 
      "name": "DBstage4_concat26", 
      "inputs": [[1006, 0], [1018, 0]], 
      "backward_source_id": -1
    }, 
    {
      "op": "null", 
      "param": {}, 
      "name": "DBstage4_unit27_bn1_gamma", 
      "inputs": [], 
      "backward_source_id": -1
    }, 
    {
      "op": "null", 
      "param": {}, 
      "name": "DBstage4_unit27_bn1_beta", 
      "inputs": [], 
      "backward_source_id": -1
    }, 
    {
      "op": "BatchNorm", 
      "param": {
        "eps": "2e-05", 
        "fix_gamma": "False", 
        "momentum": "0.9", 
        "use_global_stats": "False"
      }, 
      "name": "DBstage4_unit27_bn1", 
      "inputs": [[1019, 0], [1020, 0], [1021, 0]], 
      "backward_source_id": -1
    }, 
    {
      "op": "Activation", 
      "param": {"act_type": "relu"}, 
      "name": "DBstage4_unit27_relu1", 
      "inputs": [[1022, 0]], 
      "backward_source_id": -1
    }, 
    {
      "op": "null", 
      "param": {}, 
      "name": "DBstage4_unit27_conv1_weight", 
      "inputs": [], 
      "backward_source_id": -1
    }, 
    {
      "op": "Convolution", 
      "param": {
        "cudnn_off": "False", 
        "cudnn_tune": "limited_workspace", 
        "dilate": "(1,1)", 
        "kernel": "(1,1)", 
        "no_bias": "True", 
        "num_filter": "128", 
        "num_group": "1", 
        "pad": "(0,0)", 
        "stride": "(1,1)", 
        "workspace": "512"
      }, 
      "name": "DBstage4_unit27_conv1", 
      "inputs": [[1023, 0], [1024, 0]], 
      "backward_source_id": -1
    }, 
    {
      "op": "null", 
      "param": {}, 
      "name": "DBstage4_unit27_bn2_gamma", 
      "inputs": [], 
      "backward_source_id": -1
    }, 
    {
      "op": "null", 
      "param": {}, 
      "name": "DBstage4_unit27_bn2_beta", 
      "inputs": [], 
      "backward_source_id": -1
    }, 
    {
      "op": "BatchNorm", 
      "param": {
        "eps": "2e-05", 
        "fix_gamma": "False", 
        "momentum": "0.9", 
        "use_global_stats": "False"
      }, 
      "name": "DBstage4_unit27_bn2", 
      "inputs": [[1025, 0], [1026, 0], [1027, 0]], 
      "backward_source_id": -1
    }, 
    {
      "op": "Activation", 
      "param": {"act_type": "relu"}, 
      "name": "DBstage4_unit27_relu2", 
      "inputs": [[1028, 0]], 
      "backward_source_id": -1
    }, 
    {
      "op": "null", 
      "param": {}, 
      "name": "DBstage4_unit27_conv2_weight", 
      "inputs": [], 
      "backward_source_id": -1
    }, 
    {
      "op": "Convolution", 
      "param": {
        "cudnn_off": "False", 
        "cudnn_tune": "limited_workspace", 
        "dilate": "(1,1)", 
        "kernel": "(3,3)", 
        "no_bias": "True", 
        "num_filter": "32", 
        "num_group": "1", 
        "pad": "(1,1)", 
        "stride": "(1,1)", 
        "workspace": "512"
      }, 
      "name": "DBstage4_unit27_conv2", 
      "inputs": [[1029, 0], [1030, 0]], 
      "backward_source_id": -1
    }, 
    {
      "op": "Concat", 
      "param": {
        "dim": "1", 
        "num_args": "2"
      }, 
      "name": "DBstage4_concat27", 
      "inputs": [[1019, 0], [1031, 0]], 
      "backward_source_id": -1
    }, 
    {
      "op": "null", 
      "param": {}, 
      "name": "DBstage4_unit28_bn1_gamma", 
      "inputs": [], 
      "backward_source_id": -1
    }, 
    {
      "op": "null", 
      "param": {}, 
      "name": "DBstage4_unit28_bn1_beta", 
      "inputs": [], 
      "backward_source_id": -1
    }, 
    {
      "op": "BatchNorm", 
      "param": {
        "eps": "2e-05", 
        "fix_gamma": "False", 
        "momentum": "0.9", 
        "use_global_stats": "False"
      }, 
      "name": "DBstage4_unit28_bn1", 
      "inputs": [[1032, 0], [1033, 0], [1034, 0]], 
      "backward_source_id": -1
    }, 
    {
      "op": "Activation", 
      "param": {"act_type": "relu"}, 
      "name": "DBstage4_unit28_relu1", 
      "inputs": [[1035, 0]], 
      "backward_source_id": -1
    }, 
    {
      "op": "null", 
      "param": {}, 
      "name": "DBstage4_unit28_conv1_weight", 
      "inputs": [], 
      "backward_source_id": -1
    }, 
    {
      "op": "Convolution", 
      "param": {
        "cudnn_off": "False", 
        "cudnn_tune": "limited_workspace", 
        "dilate": "(1,1)", 
        "kernel": "(1,1)", 
        "no_bias": "True", 
        "num_filter": "128", 
        "num_group": "1", 
        "pad": "(0,0)", 
        "stride": "(1,1)", 
        "workspace": "512"
      }, 
      "name": "DBstage4_unit28_conv1", 
      "inputs": [[1036, 0], [1037, 0]], 
      "backward_source_id": -1
    }, 
    {
      "op": "null", 
      "param": {}, 
      "name": "DBstage4_unit28_bn2_gamma", 
      "inputs": [], 
      "backward_source_id": -1
    }, 
    {
      "op": "null", 
      "param": {}, 
      "name": "DBstage4_unit28_bn2_beta", 
      "inputs": [], 
      "backward_source_id": -1
    }, 
    {
      "op": "BatchNorm", 
      "param": {
        "eps": "2e-05", 
        "fix_gamma": "False", 
        "momentum": "0.9", 
        "use_global_stats": "False"
      }, 
      "name": "DBstage4_unit28_bn2", 
      "inputs": [[1038, 0], [1039, 0], [1040, 0]], 
      "backward_source_id": -1
    }, 
    {
      "op": "Activation", 
      "param": {"act_type": "relu"}, 
      "name": "DBstage4_unit28_relu2", 
      "inputs": [[1041, 0]], 
      "backward_source_id": -1
    }, 
    {
      "op": "null", 
      "param": {}, 
      "name": "DBstage4_unit28_conv2_weight", 
      "inputs": [], 
      "backward_source_id": -1
    }, 
    {
      "op": "Convolution", 
      "param": {
        "cudnn_off": "False", 
        "cudnn_tune": "limited_workspace", 
        "dilate": "(1,1)", 
        "kernel": "(3,3)", 
        "no_bias": "True", 
        "num_filter": "32", 
        "num_group": "1", 
        "pad": "(1,1)", 
        "stride": "(1,1)", 
        "workspace": "512"
      }, 
      "name": "DBstage4_unit28_conv2", 
      "inputs": [[1042, 0], [1043, 0]], 
      "backward_source_id": -1
    }, 
    {
      "op": "Concat", 
      "param": {
        "dim": "1", 
        "num_args": "2"
      }, 
      "name": "DBstage4_concat28", 
      "inputs": [[1032, 0], [1044, 0]], 
      "backward_source_id": -1
    }, 
    {
      "op": "null", 
      "param": {}, 
      "name": "DBstage4_unit29_bn1_gamma", 
      "inputs": [], 
      "backward_source_id": -1
    }, 
    {
      "op": "null", 
      "param": {}, 
      "name": "DBstage4_unit29_bn1_beta", 
      "inputs": [], 
      "backward_source_id": -1
    }, 
    {
      "op": "BatchNorm", 
      "param": {
        "eps": "2e-05", 
        "fix_gamma": "False", 
        "momentum": "0.9", 
        "use_global_stats": "False"
      }, 
      "name": "DBstage4_unit29_bn1", 
      "inputs": [[1045, 0], [1046, 0], [1047, 0]], 
      "backward_source_id": -1
    }, 
    {
      "op": "Activation", 
      "param": {"act_type": "relu"}, 
      "name": "DBstage4_unit29_relu1", 
      "inputs": [[1048, 0]], 
      "backward_source_id": -1
    }, 
    {
      "op": "null", 
      "param": {}, 
      "name": "DBstage4_unit29_conv1_weight", 
      "inputs": [], 
      "backward_source_id": -1
    }, 
    {
      "op": "Convolution", 
      "param": {
        "cudnn_off": "False", 
        "cudnn_tune": "limited_workspace", 
        "dilate": "(1,1)", 
        "kernel": "(1,1)", 
        "no_bias": "True", 
        "num_filter": "128", 
        "num_group": "1", 
        "pad": "(0,0)", 
        "stride": "(1,1)", 
        "workspace": "512"
      }, 
      "name": "DBstage4_unit29_conv1", 
      "inputs": [[1049, 0], [1050, 0]], 
      "backward_source_id": -1
    }, 
    {
      "op": "null", 
      "param": {}, 
      "name": "DBstage4_unit29_bn2_gamma", 
      "inputs": [], 
      "backward_source_id": -1
    }, 
    {
      "op": "null", 
      "param": {}, 
      "name": "DBstage4_unit29_bn2_beta", 
      "inputs": [], 
      "backward_source_id": -1
    }, 
    {
      "op": "BatchNorm", 
      "param": {
        "eps": "2e-05", 
        "fix_gamma": "False", 
        "momentum": "0.9", 
        "use_global_stats": "False"
      }, 
      "name": "DBstage4_unit29_bn2", 
      "inputs": [[1051, 0], [1052, 0], [1053, 0]], 
      "backward_source_id": -1
    }, 
    {
      "op": "Activation", 
      "param": {"act_type": "relu"}, 
      "name": "DBstage4_unit29_relu2", 
      "inputs": [[1054, 0]], 
      "backward_source_id": -1
    }, 
    {
      "op": "null", 
      "param": {}, 
      "name": "DBstage4_unit29_conv2_weight", 
      "inputs": [], 
      "backward_source_id": -1
    }, 
    {
      "op": "Convolution", 
      "param": {
        "cudnn_off": "False", 
        "cudnn_tune": "limited_workspace", 
        "dilate": "(1,1)", 
        "kernel": "(3,3)", 
        "no_bias": "True", 
        "num_filter": "32", 
        "num_group": "1", 
        "pad": "(1,1)", 
        "stride": "(1,1)", 
        "workspace": "512"
      }, 
      "name": "DBstage4_unit29_conv2", 
      "inputs": [[1055, 0], [1056, 0]], 
      "backward_source_id": -1
    }, 
    {
      "op": "Concat", 
      "param": {
        "dim": "1", 
        "num_args": "2"
      }, 
      "name": "DBstage4_concat29", 
      "inputs": [[1045, 0], [1057, 0]], 
      "backward_source_id": -1
    }, 
    {
      "op": "null", 
      "param": {}, 
      "name": "DBstage4_unit30_bn1_gamma", 
      "inputs": [], 
      "backward_source_id": -1
    }, 
    {
      "op": "null", 
      "param": {}, 
      "name": "DBstage4_unit30_bn1_beta", 
      "inputs": [], 
      "backward_source_id": -1
    }, 
    {
      "op": "BatchNorm", 
      "param": {
        "eps": "2e-05", 
        "fix_gamma": "False", 
        "momentum": "0.9", 
        "use_global_stats": "False"
      }, 
      "name": "DBstage4_unit30_bn1", 
      "inputs": [[1058, 0], [1059, 0], [1060, 0]], 
      "backward_source_id": -1
    }, 
    {
      "op": "Activation", 
      "param": {"act_type": "relu"}, 
      "name": "DBstage4_unit30_relu1", 
      "inputs": [[1061, 0]], 
      "backward_source_id": -1
    }, 
    {
      "op": "null", 
      "param": {}, 
      "name": "DBstage4_unit30_conv1_weight", 
      "inputs": [], 
      "backward_source_id": -1
    }, 
    {
      "op": "Convolution", 
      "param": {
        "cudnn_off": "False", 
        "cudnn_tune": "limited_workspace", 
        "dilate": "(1,1)", 
        "kernel": "(1,1)", 
        "no_bias": "True", 
        "num_filter": "128", 
        "num_group": "1", 
        "pad": "(0,0)", 
        "stride": "(1,1)", 
        "workspace": "512"
      }, 
      "name": "DBstage4_unit30_conv1", 
      "inputs": [[1062, 0], [1063, 0]], 
      "backward_source_id": -1
    }, 
    {
      "op": "null", 
      "param": {}, 
      "name": "DBstage4_unit30_bn2_gamma", 
      "inputs": [], 
      "backward_source_id": -1
    }, 
    {
      "op": "null", 
      "param": {}, 
      "name": "DBstage4_unit30_bn2_beta", 
      "inputs": [], 
      "backward_source_id": -1
    }, 
    {
      "op": "BatchNorm", 
      "param": {
        "eps": "2e-05", 
        "fix_gamma": "False", 
        "momentum": "0.9", 
        "use_global_stats": "False"
      }, 
      "name": "DBstage4_unit30_bn2", 
      "inputs": [[1064, 0], [1065, 0], [1066, 0]], 
      "backward_source_id": -1
    }, 
    {
      "op": "Activation", 
      "param": {"act_type": "relu"}, 
      "name": "DBstage4_unit30_relu2", 
      "inputs": [[1067, 0]], 
      "backward_source_id": -1
    }, 
    {
      "op": "null", 
      "param": {}, 
      "name": "DBstage4_unit30_conv2_weight", 
      "inputs": [], 
      "backward_source_id": -1
    }, 
    {
      "op": "Convolution", 
      "param": {
        "cudnn_off": "False", 
        "cudnn_tune": "limited_workspace", 
        "dilate": "(1,1)", 
        "kernel": "(3,3)", 
        "no_bias": "True", 
        "num_filter": "32", 
        "num_group": "1", 
        "pad": "(1,1)", 
        "stride": "(1,1)", 
        "workspace": "512"
      }, 
      "name": "DBstage4_unit30_conv2", 
      "inputs": [[1068, 0], [1069, 0]], 
      "backward_source_id": -1
    }, 
    {
      "op": "Concat", 
      "param": {
        "dim": "1", 
        "num_args": "2"
      }, 
      "name": "DBstage4_concat30", 
      "inputs": [[1058, 0], [1070, 0]], 
      "backward_source_id": -1
    }, 
    {
      "op": "null", 
      "param": {}, 
      "name": "DBstage4_unit31_bn1_gamma", 
      "inputs": [], 
      "backward_source_id": -1
    }, 
    {
      "op": "null", 
      "param": {}, 
      "name": "DBstage4_unit31_bn1_beta", 
      "inputs": [], 
      "backward_source_id": -1
    }, 
    {
      "op": "BatchNorm", 
      "param": {
        "eps": "2e-05", 
        "fix_gamma": "False", 
        "momentum": "0.9", 
        "use_global_stats": "False"
      }, 
      "name": "DBstage4_unit31_bn1", 
      "inputs": [[1071, 0], [1072, 0], [1073, 0]], 
      "backward_source_id": -1
    }, 
    {
      "op": "Activation", 
      "param": {"act_type": "relu"}, 
      "name": "DBstage4_unit31_relu1", 
      "inputs": [[1074, 0]], 
      "backward_source_id": -1
    }, 
    {
      "op": "null", 
      "param": {}, 
      "name": "DBstage4_unit31_conv1_weight", 
      "inputs": [], 
      "backward_source_id": -1
    }, 
    {
      "op": "Convolution", 
      "param": {
        "cudnn_off": "False", 
        "cudnn_tune": "limited_workspace", 
        "dilate": "(1,1)", 
        "kernel": "(1,1)", 
        "no_bias": "True", 
        "num_filter": "128", 
        "num_group": "1", 
        "pad": "(0,0)", 
        "stride": "(1,1)", 
        "workspace": "512"
      }, 
      "name": "DBstage4_unit31_conv1", 
      "inputs": [[1075, 0], [1076, 0]], 
      "backward_source_id": -1
    }, 
    {
      "op": "null", 
      "param": {}, 
      "name": "DBstage4_unit31_bn2_gamma", 
      "inputs": [], 
      "backward_source_id": -1
    }, 
    {
      "op": "null", 
      "param": {}, 
      "name": "DBstage4_unit31_bn2_beta", 
      "inputs": [], 
      "backward_source_id": -1
    }, 
    {
      "op": "BatchNorm", 
      "param": {
        "eps": "2e-05", 
        "fix_gamma": "False", 
        "momentum": "0.9", 
        "use_global_stats": "False"
      }, 
      "name": "DBstage4_unit31_bn2", 
      "inputs": [[1077, 0], [1078, 0], [1079, 0]], 
      "backward_source_id": -1
    }, 
    {
      "op": "Activation", 
      "param": {"act_type": "relu"}, 
      "name": "DBstage4_unit31_relu2", 
      "inputs": [[1080, 0]], 
      "backward_source_id": -1
    }, 
    {
      "op": "null", 
      "param": {}, 
      "name": "DBstage4_unit31_conv2_weight", 
      "inputs": [], 
      "backward_source_id": -1
    }, 
    {
      "op": "Convolution", 
      "param": {
        "cudnn_off": "False", 
        "cudnn_tune": "limited_workspace", 
        "dilate": "(1,1)", 
        "kernel": "(3,3)", 
        "no_bias": "True", 
        "num_filter": "32", 
        "num_group": "1", 
        "pad": "(1,1)", 
        "stride": "(1,1)", 
        "workspace": "512"
      }, 
      "name": "DBstage4_unit31_conv2", 
      "inputs": [[1081, 0], [1082, 0]], 
      "backward_source_id": -1
    }, 
    {
      "op": "Concat", 
      "param": {
        "dim": "1", 
        "num_args": "2"
      }, 
      "name": "DBstage4_concat31", 
      "inputs": [[1071, 0], [1083, 0]], 
      "backward_source_id": -1
    }, 
    {
      "op": "null", 
      "param": {}, 
      "name": "DBstage4_unit32_bn1_gamma", 
      "inputs": [], 
      "backward_source_id": -1
    }, 
    {
      "op": "null", 
      "param": {}, 
      "name": "DBstage4_unit32_bn1_beta", 
      "inputs": [], 
      "backward_source_id": -1
    }, 
    {
      "op": "BatchNorm", 
      "param": {
        "eps": "2e-05", 
        "fix_gamma": "False", 
        "momentum": "0.9", 
        "use_global_stats": "False"
      }, 
      "name": "DBstage4_unit32_bn1", 
      "inputs": [[1084, 0], [1085, 0], [1086, 0]], 
      "backward_source_id": -1
    }, 
    {
      "op": "Activation", 
      "param": {"act_type": "relu"}, 
      "name": "DBstage4_unit32_relu1", 
      "inputs": [[1087, 0]], 
      "backward_source_id": -1
    }, 
    {
      "op": "null", 
      "param": {}, 
      "name": "DBstage4_unit32_conv1_weight", 
      "inputs": [], 
      "backward_source_id": -1
    }, 
    {
      "op": "Convolution", 
      "param": {
        "cudnn_off": "False", 
        "cudnn_tune": "limited_workspace", 
        "dilate": "(1,1)", 
        "kernel": "(1,1)", 
        "no_bias": "True", 
        "num_filter": "128", 
        "num_group": "1", 
        "pad": "(0,0)", 
        "stride": "(1,1)", 
        "workspace": "512"
      }, 
      "name": "DBstage4_unit32_conv1", 
      "inputs": [[1088, 0], [1089, 0]], 
      "backward_source_id": -1
    }, 
    {
      "op": "null", 
      "param": {}, 
      "name": "DBstage4_unit32_bn2_gamma", 
      "inputs": [], 
      "backward_source_id": -1
    }, 
    {
      "op": "null", 
      "param": {}, 
      "name": "DBstage4_unit32_bn2_beta", 
      "inputs": [], 
      "backward_source_id": -1
    }, 
    {
      "op": "BatchNorm", 
      "param": {
        "eps": "2e-05", 
        "fix_gamma": "False", 
        "momentum": "0.9", 
        "use_global_stats": "False"
      }, 
      "name": "DBstage4_unit32_bn2", 
      "inputs": [[1090, 0], [1091, 0], [1092, 0]], 
      "backward_source_id": -1
    }, 
    {
      "op": "Activation", 
      "param": {"act_type": "relu"}, 
      "name": "DBstage4_unit32_relu2", 
      "inputs": [[1093, 0]], 
      "backward_source_id": -1
    }, 
    {
      "op": "null", 
      "param": {}, 
      "name": "DBstage4_unit32_conv2_weight", 
      "inputs": [], 
      "backward_source_id": -1
    }, 
    {
      "op": "Convolution", 
      "param": {
        "cudnn_off": "False", 
        "cudnn_tune": "limited_workspace", 
        "dilate": "(1,1)", 
        "kernel": "(3,3)", 
        "no_bias": "True", 
        "num_filter": "32", 
        "num_group": "1", 
        "pad": "(1,1)", 
        "stride": "(1,1)", 
        "workspace": "512"
      }, 
      "name": "DBstage4_unit32_conv2", 
      "inputs": [[1094, 0], [1095, 0]], 
      "backward_source_id": -1
    }, 
    {
      "op": "Concat", 
      "param": {
        "dim": "1", 
        "num_args": "2"
      }, 
      "name": "DBstage4_concat32", 
      "inputs": [[1084, 0], [1096, 0]], 
      "backward_source_id": -1
    }, 
    {
      "op": "null", 
      "param": {}, 
      "name": "bn1_gamma", 
      "inputs": [], 
      "backward_source_id": -1
    }, 
    {
      "op": "null", 
      "param": {}, 
      "name": "bn1_beta", 
      "inputs": [], 
      "backward_source_id": -1
    }, 
    {
      "op": "BatchNorm", 
      "param": {
        "eps": "2e-05", 
        "fix_gamma": "False", 
        "momentum": "0.9", 
        "use_global_stats": "False"
      }, 
      "name": "bn1", 
      "inputs": [[1097, 0], [1098, 0], [1099, 0]], 
      "backward_source_id": -1
    }, 
    {
      "op": "Activation", 
      "param": {"act_type": "relu"}, 
      "name": "relu1", 
      "inputs": [[1100, 0]], 
      "backward_source_id": -1
    }, 
    {
      "op": "Pooling", 
      "param": {
        "global_pool": "True", 
        "kernel": "(7,7)", 
        "pad": "(0,0)", 
        "pool_type": "avg", 
        "pooling_convention": "valid", 
        "stride": "(1,1)"
      }, 
      "name": "pool1", 
      "inputs": [[1101, 0]], 
      "backward_source_id": -1
    }, 
    {
      "op": "Flatten", 
      "param": {}, 
      "name": "flatten0", 
      "inputs": [[1102, 0]], 
      "backward_source_id": -1
    }, 
    {
      "op": "null", 
      "param": {}, 
      "name": "fc1_weight", 
      "inputs": [], 
      "backward_source_id": -1
    }, 
    {
      "op": "null", 
      "param": {}, 
      "name": "fc1_bias", 
      "inputs": [], 
      "backward_source_id": -1
    }, 
    {
      "op": "FullyConnected", 
      "param": {
        "no_bias": "False", 
        "num_hidden": "1000"
      }, 
      "name": "fc1", 
      "inputs": [[1103, 0], [1104, 0], [1105, 0]], 
      "backward_source_id": -1
    }, 
    {
      "op": "null", 
      "param": {}, 
      "name": "softmax_label", 
      "inputs": [], 
      "backward_source_id": -1
    }, 
    {
      "op": "SoftmaxOutput", 
      "param": {
        "grad_scale": "1", 
        "ignore_label": "-1", 
        "multi_output": "False", 
        "normalization": "null", 
        "out_grad": "False", 
        "preserve_shape": "False", 
        "use_ignore": "False"
      }, 
      "name": "softmax", 
      "inputs": [[1106, 0], [1107, 0]], 
      "backward_source_id": -1
    }
  ], 
  "arg_nodes": [
    0, 
    1, 
    2, 
    4, 
    6, 
    7, 
    11, 
    12, 
    15, 
    17, 
    18, 
    21, 
    24, 
    25, 
    28, 
    30, 
    31, 
    34, 
    37, 
    38, 
    41, 
    43, 
    44, 
    47, 
    50, 
    51, 
    54, 
    56, 
    57, 
    60, 
    63, 
    64, 
    67, 
    69, 
    70, 
    73, 
    76, 
    77, 
    80, 
    82, 
    83, 
    86, 
    89, 
    90, 
    93, 
    96, 
    97, 
    100, 
    102, 
    103, 
    106, 
    109, 
    110, 
    113, 
    115, 
    116, 
    119, 
    122, 
    123, 
    126, 
    128, 
    129, 
    132, 
    135, 
    136, 
    139, 
    141, 
    142, 
    145, 
    148, 
    149, 
    152, 
    154, 
    155, 
    158, 
    161, 
    162, 
    165, 
    167, 
    168, 
    171, 
    174, 
    175, 
    178, 
    180, 
    181, 
    184, 
    187, 
    188, 
    191, 
    193, 
    194, 
    197, 
    200, 
    201, 
    204, 
    206, 
    207, 
    210, 
    213, 
    214, 
    217, 
    219, 
    220, 
    223, 
    226, 
    227, 
    230, 
    232, 
    233, 
    236, 
    239, 
    240, 
    243, 
    245, 
    246, 
    249, 
    252, 
    253, 
    256, 
    259, 
    260, 
    263, 
    265, 
    266, 
    269, 
    272, 
    273, 
    276, 
    278, 
    279, 
    282, 
    285, 
    286, 
    289, 
    291, 
    292, 
    295, 
    298, 
    299, 
    302, 
    304, 
    305, 
    308, 
    311, 
    312, 
    315, 
    317, 
    318, 
    321, 
    324, 
    325, 
    328, 
    330, 
    331, 
    334, 
    337, 
    338, 
    341, 
    343, 
    344, 
    347, 
    350, 
    351, 
    354, 
    356, 
    357, 
    360, 
    363, 
    364, 
    367, 
    369, 
    370, 
    373, 
    376, 
    377, 
    380, 
    382, 
    383, 
    386, 
    389, 
    390, 
    393, 
    395, 
    396, 
    399, 
    402, 
    403, 
    406, 
    408, 
    409, 
    412, 
    415, 
    416, 
    419, 
    421, 
    422, 
    425, 
    428, 
    429, 
    432, 
    434, 
    435, 
    438, 
    441, 
    442, 
    445, 
    447, 
    448, 
    451, 
    454, 
    455, 
    458, 
    460, 
    461, 
    464, 
    467, 
    468, 
    471, 
    473, 
    474, 
    477, 
    480, 
    481, 
    484, 
    486, 
    487, 
    490, 
    493, 
    494, 
    497, 
    499, 
    500, 
    503, 
    506, 
    507, 
    510, 
    512, 
    513, 
    516, 
    519, 
    520, 
    523, 
    525, 
    526, 
    529, 
    532, 
    533, 
    536, 
    538, 
    539, 
    542, 
    545, 
    546, 
    549, 
    551, 
    552, 
    555, 
    558, 
    559, 
    562, 
    564, 
    565, 
    568, 
    571, 
    572, 
    575, 
    577, 
    578, 
    581, 
    584, 
    585, 
    588, 
    590, 
    591, 
    594, 
    597, 
    598, 
    601, 
    603, 
    604, 
    607, 
    610, 
    611, 
    614, 
    616, 
    617, 
    620, 
    623, 
    624, 
    627, 
    629, 
    630, 
    633, 
    636, 
    637, 
    640, 
    642, 
    643, 
    646, 
    649, 
    650, 
    653, 
    655, 
    656, 
    659, 
    662, 
    663, 
    666, 
    668, 
    669, 
    672, 
    675, 
    676, 
    679, 
    682, 
    683, 
    686, 
    688, 
    689, 
    692, 
    695, 
    696, 
    699, 
    701, 
    702, 
    705, 
    708, 
    709, 
    712, 
    714, 
    715, 
    718, 
    721, 
    722, 
    725, 
    727, 
    728, 
    731, 
    734, 
    735, 
    738, 
    740, 
    741, 
    744, 
    747, 
    748, 
    751, 
    753, 
    754, 
    757, 
    760, 
    761, 
    764, 
    766, 
    767, 
    770, 
    773, 
    774, 
    777, 
    779, 
    780, 
    783, 
    786, 
    787, 
    790, 
    792, 
    793, 
    796, 
    799, 
    800, 
    803, 
    805, 
    806, 
    809, 
    812, 
    813, 
    816, 
    818, 
    819, 
    822, 
    825, 
    826, 
    829, 
    831, 
    832, 
    835, 
    838, 
    839, 
    842, 
    844, 
    845, 
    848, 
    851, 
    852, 
    855, 
    857, 
    858, 
    861, 
    864, 
    865, 
    868, 
    870, 
    871, 
    874, 
    877, 
    878, 
    881, 
    883, 
    884, 
    887, 
    890, 
    891, 
    894, 
    896, 
    897, 
    900, 
    903, 
    904, 
    907, 
    909, 
    910, 
    913, 
    916, 
    917, 
    920, 
    922, 
    923, 
    926, 
    929, 
    930, 
    933, 
    935, 
    936, 
    939, 
    942, 
    943, 
    946, 
    948, 
    949, 
    952, 
    955, 
    956, 
    959, 
    961, 
    962, 
    965, 
    968, 
    969, 
    972, 
    974, 
    975, 
    978, 
    981, 
    982, 
    985, 
    987, 
    988, 
    991, 
    994, 
    995, 
    998, 
    1000, 
    1001, 
    1004, 
    1007, 
    1008, 
    1011, 
    1013, 
    1014, 
    1017, 
    1020, 
    1021, 
    1024, 
    1026, 
    1027, 
    1030, 
    1033, 
    1034, 
    1037, 
    1039, 
    1040, 
    1043, 
    1046, 
    1047, 
    1050, 
    1052, 
    1053, 
    1056, 
    1059, 
    1060, 
    1063, 
    1065, 
    1066, 
    1069, 
    1072, 
    1073, 
    1076, 
    1078, 
    1079, 
    1082, 
    1085, 
    1086, 
    1089, 
    1091, 
    1092, 
    1095, 
    1098, 
    1099, 
    1104, 
    1105, 
    1107
  ], 
  "heads": [[1108, 0]]
}